checkpoint_actor.pth (torch_old, 548262 bytes, 10 tensors)

fc1.weight f4 [400, 33]
000000 dd 1b 58 be 08 8f a2 be 32 6c 08 3d f2 b6 9d 3e
       -0.21104379 -0.3174975 0.033306308 0.3080364
000010 6c ce cc bd 63 0f b7 3d 94 00 6c 3e 69 97 94 be
       -0.10000309 0.08938482 0.23047096 -0.29021767
000020 9e 55 6c 3e ff 30 a7 bc 5d 4f fc bd aa e5 04 bc
       0.23079535 -0.020409105 -0.12319825 -0.008111397
000030 5d 4e 9e bb be a1 f9 bc 82 36 2d 3e 92 ff 1a 3d
       -0.004831119 -0.030472632 0.16915324 0.037841387
000040 de bc a3 3e af 5a b1 be 46 57 85 3e 18 2c e2 bb
       0.31980032 -0.346395 0.26043147 -0.006902229
000050 4f d9 ae 3d fb 4b 5f bd 98 98 97 bd f6 5c a1 3d
       0.08537542 -0.05451582 -0.07402152 0.07879059
000060 72 15 99 3d f6 86 ed 3d b6 47 04 3d f2 71 3a bc
       0.074747935 0.115980074 0.03229495 -0.011379706
000070 60 48 2a 3e 50 58 4c 3b ed e3 bd 3c 3d ad 4b bd
       0.16629171 0.0031180568 0.023179973 -0.04972576
000080 90 b4 64 3d e1 3b 74 bd 81 71 44 bd bf 44 2e 3e
       0.05583626 -0.059627417 -0.04795981 0.17018412
000090 94 00 94 3d 1d f6 5b bd 89 f7 43 3e 4c b5 55 3c
       0.07226673 -0.05370151 0.19137396 0.013043713
0000a0 c8 ca 2b bd 72 28 18 3e d0 54 11 be 17 3c c5 3d
       -0.041941434 0.14859179 -0.1419251 0.09630602
0000b0 4a aa 40 bd 79 05 62 3d f4 8c 24 3e 0e 5d 87 3e
       -0.0470374 0.055181 0.16069394 0.26438183
0000c0 f2 2c 64 be 48 aa 80 3d bc 89 e6 bb 27 74 35 be
       -0.2228277 0.062824786 -0.007035462 -0.1772009
0000d0 54 b7 7d 3d 09 4a 54 bd 96 31 af bc af e3 c3 bc
       0.061942413 -0.051828418 -0.02138595 -0.023912279
0000e0 56 63 87 3d 4a c1 e9 3d 2f df 27 3c 61 1e 0f bd
       0.06610744 0.1141382 0.010246082 -0.03494108
0000f0 d7 32 ad 3c a6 59 78 be 40 54 d5 3b fd 19 a0 3c
       0.021142406 -0.24252948 0.0065102875 0.019543642
000100 b6 3f 18 bd d7 ff aa 3e 3c 95 fe bd 33 4c 48 be
       -0.037170134 0.33398315 -0.12430808 -0.19560318
000110 16 20 af 3d c7 79 6a bd cf b3 26 3e 5a 6e 3b 3d
       0.08551042 -0.057245042 0.16279529 0.045759536
000120 85 a3 8a bc ba af 21 3e a1 7a 90 3d bb bf 50 3e
       -0.016923675 0.1578969 0.070546396 0.2038564
000130 d8 2a 7e 3d 92 31 c5 3c e6 ef 30 3d 31 d1 33 bd
       0.062052578 0.024071489 0.043197535 -0.043900672
000140 73 5c 8b 3e 78 a6 b0 bc 5e fd d6 bd 29 b0 71 3e
       0.2721897 -0.021563753 -0.10497545 0.23602356
000150 ed 3d 22 be 65 0e f0 3b 34 1e af 3c a3 39 4f 3d
       -0.15843935 0.0073259347 0.021376707 0.050592076
000160 31 b9 82 be 49 dc 09 be e1 df 65 3e 47 f4 22 3e
       -0.25531915 -0.13462938 0.22448684 0.15913497
000170 75 49 c6 3d db cc b7 3c 8b 9f 17 3c b8 a5 3f bd
       0.096819796 0.02243655 0.009254347 -0.0467889
000180 6c 87 3b bd 70 58 f8 3b d6 8a f5 bd 0e 06 43 bd
       -0.045783445 0.007578902 -0.119893715 -0.047613196
000190 86 72 3a bc ff fc e8 3c 95 38 b6 3d fb e7 a1 3d
       -0.011379844 0.02844095 0.08897511 0.07905575
0001a0 98 a8 ef 3d f8 59 c6 bd d2 8f dc 3c 0e e1 60 3c
       0.117020786 -0.09685129 0.026924048 0.013725532
0001b0 2c ba df 3c a4 9b c7 bd 95 79 9b 3c be cc ec bc
       0.027310453 -0.09746483 0.018978873 -0.028906222
0001c0 63 4b 85 3c f4 05 55 3d 55 01 05 3d 5c 0b ad 3c
       0.016271299 0.05200763 0.032471973 0.02112358
0001d0 bb 25 eb 3d 87 bb 2a bd 7e d5 5d be e2 13 02 bd
       0.11481806 -0.041682746 -0.21663472 -0.031757243
0001e0 a9 ca ed bc 20 cd cd bc ec 2a a2 3c e5 f5 54 3c
       -0.0290273 -0.025122225 0.019795857 0.012998079
0001f0 24 46 46 bc 8d 60 08 3d 68 f5 0d bc 44 c5 91 bc
       -0.012101684 0.033295203 -0.008664466 -0.017794259
000200 03 b0 c2 bc 03 ee dc 3b ad e3 a3 bc 43 5c e6 3f
       -0.02376557 0.0067422404 -0.020006025 1.7996906
000210 c7 2c 15 be 22 bc dc bd 79 25 b5 3d 8a f3 59 3b
       -0.14567862 -0.10778071 0.08845038 0.0033256733
000220 1f 6b e8 3d c6 05 36 be 8e 7d 12 3f 60 be 9a bb
       0.11348557 -0.1777564 0.5722283 -0.0047224015
000230 21 37 b2 3e b8 cf 50 be 2a 0d 34 3d 21 93 63 3d
       0.34807685 -0.20391738 0.043957867 0.055560235
000240 58 17 88 3e 57 5a 8f 3d 10 81 38 3e b4 1f 12 3e
       0.2658031 0.06999653 0.18017983 0.14269906
000250 44 b3 88 3e 20 7a 71 3e f2 d3 99 3e bb 66 b3 3d
       0.2669927 0.23581743 0.30044514 0.08759829
000260 86 75 85 3d 24 16 3e 3d 87 08 13 bc 15 67 70 bc
       0.065165564 0.046407834 -0.008974201 -0.014673014
000270 5f 15 47 bc 01 63 5e bc 88 7d c4 bd 60 62 99 bc
       -0.012151091 -0.013573409 -0.09594256 -0.018723667
000280 7e 78 bd 3d d6 1b 93 bc c2 3a bf 3c d5 28 38 3d
       0.09251498 -0.01795761 0.023343448 0.044960815
000290 c7 4e d0 3e 9e 3d 58 be 4d 32 e6 bd 48 31 38 bb
       0.40685102 -0.21117255 -0.11240063 -0.0028105546
0002a0 63 80 cf 3d 3d 57 f6 bc 33 52 c8 3d 62 77 30 3e
       0.1013191 -0.030070895 0.09781303 0.17233041
0002b0 13 72 c1 bd dd 52 21 3e bc 00 54 3e be ef 34 bd
       -0.09445586 0.15754266 0.20703405 -0.04417395
0002c0 38 e2 88 bd 20 2b 64 3d 44 cb 76 3e 21 83 8c 3c
       -0.06683773 0.05570519 0.24100977 0.01715237
0002d0 7b 53 a8 b9 4e 5b 24 3e de 94 69 3e d9 f8 72 be
       -0.00032105655 0.16050455 0.22810695 -0.2372774
0002e0 c0 38 6d be df 98 21 bd 57 e3 a4 3c a8 0a 1b 3d
       -0.2316618 -0.03945243 0.020127935 0.03785196
0002f0 62 dc d9 bc 54 82 fa bd eb 7d ef 3c 54 8d 4a be
       -0.026594345 -0.12231889 0.029234847 -0.19780475
000300 73 65 19 3d f2 21 b5 bd 94 9a 2f 3c 8a 0f 93 3c
       0.037450265 -0.08844365 0.010718007 0.017951746
000310 40 5a 95 bc 8a 74 94 3e 50 06 75 3e 2b 96 30 b9
       -0.018231511 0.28995162 0.2392819 -0.0001684061
000320 72 58 88 be da bd e0 3d d2 17 d3 3e ca 06 52 3e
       -0.26629978 0.10973711 0.4122911 0.20510402
000330 6d ec 6a be f6 f5 9a bc 21 34 29 3e f4 e6 10 3e
       -0.22941752 -0.018916111 0.16523792 0.14150602
000340 f8 96 5f 3d 56 ba 68 bd 1d c2 d1 bd c3 41 32 bd
       0.054587334 -0.05681833 -0.10242102 -0.043519747
000350 5e 78 b7 bc 07 8a 87 3d f8 ad 9f be 82 67 fb 3d
       -0.022396263 0.066181235 -0.31187415 0.12275602
000360 ec 47 6d 3e f0 66 9c bd d1 43 88 bc 87 ad 8b 3d
       0.23171967 -0.07636821 -0.0166339 0.06820207
000370 2f f4 08 bd 22 a1 a9 bd 49 62 f1 bc 3f e3 00 3e
       -0.033435997 -0.08282687 -0.029465811 0.12586688
000380 25 d9 53 be d8 76 1f 3d 84 1a be 3c 0a 8e fb bc
       -0.20688303 0.038931698 0.023206003 -0.030707378
000390 97 03 e9 bc cd 45 ab bc bb ff f8 be 50 41 4b be
       -0.028444095 -0.020907307 -0.48632607 -0.19849133
0003a0 1d 2b 30 3d d5 f8 e9 bd 34 cf 93 be 9b d7 57 3e
       0.043009866 -0.11424414 -0.2886902 0.2107834
0003b0 7d 8a 09 be 00 70 04 be 79 8a d0 bc a8 fc 89 bb
       -0.13431735 -0.1293335 -0.025456654 -0.004211027
0003c0 92 42 81 bd 18 37 ae 3d 3f 4d 1f 3c a6 2a a5 3c
       -0.063115254 0.08506602 0.009723007 0.020161938
0003d0 b7 21 6b be be c6 d4 bd f5 68 46 3c 7a 13 85 be
       -0.2296208 -0.103894696 0.012109985 -0.25991422
0003e0 f4 57 ad be 41 79 a8 be e7 43 f8 bd 90 eb a5 3d
       -0.33856165 -0.3290501 -0.12122326 0.081015706
0003f0 f1 62 04 3e f5 74 cd 3d 3a a8 b0 3d d8 0c ba bd
       0.12928368 0.100320734 0.08625837 -0.09084481

fc1.bias f4 [400]
000000 63 9b ca 3c a0 b1 29 3e e4 fa 7b 3d b5 9e ca 3d
       0.024732297 0.16571665 0.061518565 0.09893552
000010 92 dc 90 3d 4d 04 5f bd cb 80 29 3d 35 3d f6 bd
       0.070733204 -0.05444746 0.041382592 -0.12023393
000020 34 c4 24 3e e4 59 20 3c cd fb 09 3e d0 92 fa bd
       0.1609047 0.009787057 0.1347496 -0.122350335
000030 06 af 23 be 91 2e ab 3c 55 c4 b7 bc 33 74 90 bd
       -0.15984735 0.020896228 -0.022432486 -0.07053413
000040 1f 8d ba 3d 90 ce e7 bd db 14 1c 3e b0 c4 2d be
       0.09108948 -0.113186955 0.1524233 -0.16969562
000050 9b 4e 13 3d 83 3e d0 bd 76 d7 1d 3d f6 e5 2f 3e
       0.035963636 -0.10168173 0.038535558 0.17177567
000060 11 ed aa bc 8c f0 25 3d 9b 1d 8c bd 78 1a b7 bd
       -0.020864995 0.040512607 -0.06841584 -0.089405954
000070 bd 43 18 be bf ed cd 3d 57 c3 eb ba 85 ac 77 3d
       -0.1486959 0.10055112 -0.0017987293 0.06046726
000080 b2 01 09 be a9 4d 14 be 1f 26 22 be ff a8 cd bd
       -0.13379553 -0.1448275 -0.15834855 -0.10041999
000090 58 c5 b8 bc 75 96 d6 bc f8 71 9c 3d c3 71 ab bd
       -0.022555038 -0.02619479 0.07638925 -0.08371308
0000a0 0b a7 2d 3e a3 91 a2 bd c5 b0 27 be c3 c3 06 3e
       0.16958253 -0.07937934 -0.16376026 0.13160615
0000b0 ba 89 e5 bd 54 4d 8d 3c 19 e9 88 bc 53 4e 15 bd
       -0.1120791 0.017248787 -0.016712712 -0.03645165
0000c0 7e 08 82 b8 2c 6b 2f be 4a b4 20 3e 65 60 e7 bd
       -6.200465e-05 -0.17130727 0.15693775 -0.11297683
0000d0 0c 98 d8 3d f9 ed d3 bd e4 c8 30 bd bb 2e 81 bb
       0.10575876 -0.10348124 -0.043160334 -0.0039423383
0000e0 f0 9f 8c bd b3 77 9a bd 09 34 16 be e3 df f4 bd
       -0.06866443 -0.07542362 -0.14668287 -0.119567655
0000f0 24 48 07 bc ab 21 51 bd f7 a0 cb bc 18 ab 37 3d
       -0.008256946 -0.0510575 -0.024857027 0.044840902
000100 e6 54 b4 bc cd fe 28 be 33 3c 83 bd 51 2a 59 3d
       -0.022013139 -0.16503449 -0.064079665 0.05301887
000110 8a be 7f 3d b7 17 ad 3d 6e bd 1c 3c 9b 58 f3 3d
       0.06243757 0.08451789 0.009566648 0.118821345
000120 45 1b f4 bd da 5b 15 be 96 b3 3d bd 80 46 ca 3a
       -0.11919264 -0.1458582 -0.046313845 0.0015432388
000130 68 8b 01 3e 23 2a cf bd 7c 72 f9 bd d9 a8 9a bb
       0.12650836 -0.10115459 -0.12180039 -0.0047198352
000140 a3 c3 36 3d 29 99 22 be dd 07 90 bd 0d 90 0b be
       0.044620167 -0.15878738 -0.0703275 -0.1362917
000150 5a df 26 3d 87 24 83 3c d5 22 1e be 94 a3 ed bd
       0.04074035 0.016008629 -0.15442975 -0.11603466
000160 a5 57 05 3c 45 7f 3d bd 6f d7 09 be ae a2 57 bd
       0.008138572 -0.04626395 -0.13461088 -0.052645378
000170 5b b9 23 be 8d 01 a2 bc bf 14 a4 bc dd 20 18 3c
       -0.15988676 -0.01977613 -0.020029424 0.009285179
000180 b2 1c 72 3c 3d 8d f9 bc 28 49 0e 3e ce 27 7f bd
       0.014777349 -0.030462855 0.13895094 -0.06229382
000190 44 3d a1 3d b7 2a 86 3d 5b ef ac bc f7 0e 02 be
       0.078730136 0.06551116 -0.021110227 -0.12701021
0001a0 33 32 16 be df fc 45 3d 2d f4 58 3d c2 6f d8 3d
       -0.14667587 0.04833686 0.05296724 0.10568191
0001b0 81 0d 9e bd de 2c 10 3e a3 f1 31 3e 69 df e3 bc
       -0.077174194 0.14079615 0.17377333 -0.027816491
0001c0 c8 bd 8a bd 89 d7 5f bd 3d 16 1b be d9 e3 cc 3d
       -0.06774479 -0.05464891 -0.15145202 0.10004396
0001d0 ab 13 9e 3c 9f 16 a4 3d f3 4d e5 3d 75 4b 96 bd
       0.019296488 0.08012127 0.11196508 -0.07338611
0001e0 8c d1 dc 3a 33 d9 0f 3e 35 11 0a be 3d 69 1c 3e
       0.0016847118 0.14047699 -0.13483126 0.1527452
0001f0 95 50 b9 3d 9a e1 5f bd 6c 89 11 be e6 41 be 3d
       0.09048573 -0.05465851 -0.14212579 0.09289913
000200 51 a2 aa 3d 43 55 a1 bd fe ec a9 3d 87 a8 53 3d
       0.08331741 -0.078775905 0.08297156 0.051674392
000210 ce 4b 2f 3e 80 73 b6 3d 80 ae db 3c 48 5c 30 be
       0.17118761 0.089087486 0.026816607 -0.17222703
000220 c8 be 10 3e 0d f9 18 3e ca 93 45 bd 72 f6 60 bc
       0.14135277 0.14938755 -0.048236646 -0.013730632
000230 df 44 db bb cb b4 2f bc 49 af c1 3d 25 5c c0 3c
       -0.0066915597 -0.010724257 0.09457261 0.023481438
000240 30 e8 1a be ac e9 65 3d 2d 5b d9 bd 0d 5f 4b 3d
       -0.15127635 0.05613105 -0.106130935 0.049651194
000250 d9 1b 9b 3d f1 70 aa bd 2a 9b f1 3d a5 d3 98 3b
       0.07573671 -0.08322323 0.11797173 0.004663902
000260 94 2c b3 bd eb 34 19 3e c8 79 e3 3d ed a5 02 3e
       -0.08748737 0.14961593 0.11107212 0.12758608
000270 8f 62 f5 bd 4e bd 07 be 81 fd 1c be 30 a4 e6 3d
       -0.11981689 -0.13255808 -0.15331079 0.11261785
000280 8a 3f cf 3d 18 80 d8 bd 46 13 8c 3d 20 5c 0f 3d
       0.10119541 -0.10571307 0.068396136 0.034999967
000290 5e 9f 97 bd 3f 25 c1 3b 32 c8 d6 bd ac 10 52 bd
       -0.07403444 0.0058943327 -0.10487403 -0.05128543
0002a0 aa b5 8c 3d 87 ff c8 3c e0 e6 04 be 1d 92 30 3d
       0.06870587 0.024535907 -0.12978697 0.043108094
0002b0 f1 44 0f bd 4b 82 02 be 15 d4 24 be ed 7c f4 3b
       -0.034977857 -0.12745015 -0.16096528 0.0074611814
0002c0 42 ff 02 be 3f e1 d9 bd 13 97 2c 3d 84 1b 31 3c
       -0.12792686 -0.106386654 0.042136263 0.010809783
0002d0 f7 36 a1 bd 99 55 db 3c 29 39 b3 3d f4 73 89 bd
       -0.07871812 0.026774215 0.08751137 -0.067115694
0002e0 ff ee 7d bd 4c c2 fb 3c 4f 67 2e 3d a1 f8 75 3d
       -0.061995503 0.030732296 0.04257899 0.060051564
0002f0 c3 87 f2 3d 9b 35 40 bc 78 7f 6c 3d 51 86 cc bd
       0.11842301 -0.011731531 0.05773875 -0.09986556
000300 a3 7f b5 bc 14 02 04 3e 34 b1 2c be 77 71 ea bd
       -0.022155588 0.12891418 -0.16864473 -0.11447423
000310 bc f6 19 be cd 75 14 3e cf fa a5 bc a0 2b 23 3e
       -0.15035528 0.14498062 -0.020261196 0.1593461
000320 db 76 c0 bd 34 38 42 bd ab 9e e5 3d 3b b2 31 be
       -0.0939767 -0.04741688 0.11211904 -0.17353146
000330 cb 8d 2d be 16 b9 ed bd 41 6f 3e 3b 0c d9 23 be
       -0.16948621 -0.11607568 0.0029058012 -0.16000766
000340 ec 73 03 3d df 26 17 3e 16 cd 0f bd a9 46 fb bc
       0.032092974 0.14760922 -0.035107695 -0.030673342
000350 e2 0e 1d be a5 8c 16 bd e2 a4 6a 3c d3 cb 10 3d
       -0.15337709 -0.036755223 0.014321538 0.035350632
000360 b4 55 6c bd 8a e9 d9 bd 18 58 bb bd 8b 6d f5 3d
       -0.05769892 -0.10640247 -0.09147662 0.11983784
000370 77 04 c2 bd b2 e4 5f 3c 4e 61 f9 bc 8e c5 8f bd
       -0.09473508 0.013665365 -0.030441906 -0.070201024
000380 5b 58 ef bb 38 34 06 3e d9 f6 06 3e 2e b2 14 bd
       -0.007304234 0.13105857 0.13180102 -0.036302738
000390 56 f4 0f bd be 02 c8 bd e9 9a a5 bd 8b ce f1 bc
       -0.035145126 -0.09766148 -0.080861874 -0.029517433
0003a0 4d 94 04 3e 6c 25 ca 3c 54 7d 18 be 70 a5 37 bd
       0.12947197 0.024676047 -0.14891559 -0.044835508
0003b0 1b 78 1a be 6a 7b 24 3e c7 fa 84 3c cb 3a 32 bd
       -0.15084879 0.16062704 0.016232861 -0.0435131
0003c0 6f df 8e 3d 17 f7 26 be c9 b3 6d bd 4e 14 86 3c
       0.0697621 -0.16305195 -0.058032785 0.016367104
0003d0 55 78 00 3e 32 6d 11 3e 6b c4 bf bb 67 d2 31 be
       0.12545903 0.14201811 -0.0058522723 -0.17365418
0003e0 3e 5e 04 3d 1c 25 c9 bd e4 a9 20 3e b2 db 40 bd
       0.03231644 -0.09821531 0.15689808 -0.047084518
0003f0 a4 2f 42 bd ec 80 d3 bc 9b 67 25 3e a3 88 9c 3d
       -0.047408715 -0.02581831 0.16152804 0.07643249

bn1.weight f4 [400]
000000 79 07 4b 3f 89 99 3f 3f 7d dd 07 3f 2d 5f d0 3f
       0.7930828 0.7484365 0.5307234 1.6279045
000010 e1 94 0a 3f 49 2c 61 3f c4 bd 92 3f a1 29 e3 3e
       0.5413342 0.879582 1.1464162 0.44367698
000020 00 d0 5f 3f dd 48 87 3f 9e ed 73 3f 86 f8 30 3f
       0.8742676 1.0569111 0.9528445 0.69129217
000030 14 74 26 3f 45 eb 1e 3f 87 6c ca 3e ce 62 d2 3e
       0.6502087 0.6207774 0.39535925 0.41091007
000040 67 d2 39 3f d7 71 88 3f 56 c2 b6 3e a6 f9 97 3f
       0.72586673 1.0659741 0.35695142 1.1873062
000050 18 2d 0c 3f 10 72 45 3f 10 fa 31 3f 76 72 85 3f
       0.5475631 0.7712717 0.6952219 1.0425556
000060 2f 26 36 3f 05 14 81 3f ab 26 31 3f f2 61 5a 3f
       0.71152014 1.0084234 0.6919963 0.853057
000070 32 3b d2 3e c5 40 0c 3f 67 a7 5f 3f 2f 8b f5 3e
       0.41060787 0.5478633 0.8736481 0.4795775
000080 fb e2 0a 3f 99 68 df 3e 97 04 4a 3f 07 87 3d 3f
       0.54252595 0.4363449 0.78913254 0.7403416
000090 9d 8e cf 3e 44 a6 8b 3f 14 15 5f 3f 23 e1 39 3f
       0.40538493 1.0910115 0.8714154 0.72609156
0000a0 9f d5 39 3f d3 00 77 3f 02 c4 05 3f ac 78 41 3f
       0.72591585 0.9648563 0.5225221 0.75574756
0000b0 a5 4f 4c 3f 9a 0a 0e 3f fb 38 d0 3e f9 6b 44 3f
       0.7980903 0.55484927 0.40668473 0.76727253
0000c0 79 7b ca 3e 3d 5b 7c 3f 8e bb 83 3f 35 2c 23 3f
       0.39547327 0.9857672 1.0291612 0.6373933
0000d0 58 73 ed 3f c7 6a ee 3f 3d c7 3d 3f 2f 5c 44 3f
       1.8550825 1.8626336 0.7413214 0.7670316
0000e0 c6 a2 14 3f 6f f8 00 3f 97 c0 44 3f 2d 1f 17 3f
       0.5806087 0.5037908 0.7685637 0.59031945
0000f0 bf 8b 1d 3f 85 be c1 3e c1 a1 6c 3f e7 ec fb 3f
       0.6154136 0.37840667 0.92434317 1.9681672
000100 7a 51 97 3f bf 70 8a 3f 0a 53 f4 3e c9 e7 3c 3f
       1.182174 1.0815657 0.47719604 0.73791176
000110 7d 80 44 3f df 43 11 3f 43 a4 e3 3e ce cc 77 3f
       0.7675856 0.5674419 0.4446126 0.9679688
000120 37 86 8d 3f ce 87 fb 3e 35 58 46 3f 18 3a 2f 3f
       1.1056584 0.49127048 0.77478343 0.6844802
000130 15 a1 47 3f 8c 60 93 3f f5 9b 92 3f 24 f8 66 3f
       0.77980167 1.1513839 1.1453844 0.9022238
000140 ed 11 99 3f 2d 15 28 3f 63 91 48 3f 53 1e 1c 3f
       1.1958596 0.6565731 0.7834684 0.6098377
000150 e4 c8 11 3f e1 58 65 3f fa 28 a2 3f 11 a0 3d 3f
       0.5694716 0.89588743 1.2668755 0.74072367
000160 b3 2e 34 3f eb 8a 81 3f cd 0f 1b 3f 32 b2 2d 3f
       0.7038376 1.0120519 0.60570985 0.6785003
000170 0a fb 2a 3f 2f 24 05 3f 1a c0 6e 3f c0 2e 87 3f
       0.66789305 0.52008337 0.93261874 1.0561142
000180 0e cd fe 3e 90 6a 6d 3f f2 84 3b 3f 23 b2 86 3f
       0.4976582 0.92740726 0.73249733 1.0523113
000190 3d 95 bc 3e fb 1b 81 3f ec e7 61 3f 25 2c 93 3f
       0.3683261 1.0086664 0.8824451 1.1497847
0001a0 fe 5a 0a 3f 39 bf 60 3f cc bb b6 3e de c9 0b 3f
       0.54045093 0.8779178 0.35690153 0.546049
0001b0 f5 05 85 3f 33 ce 33 3f 18 9a 76 3f 0d ed 1f 3f
       1.0392443 0.7023651 0.9632888 0.62471086
0001c0 13 87 6c 3f 90 5d 1d 3f 0a f6 0d 40 4b f8 a0 3f
       0.92393607 0.6147089 2.218142 1.2575773
0001d0 38 62 68 3f b7 6a e3 3e 79 f1 c7 3e 38 e5 82 3f
       0.9077487 0.44417354 0.39051417 1.0226202
0001e0 c9 ed 1c 3f 74 78 80 3f cc 71 71 3f 54 ac 64 3f
       0.6130033 1.0036759 0.94314265 0.8932545
0001f0 51 c5 ed 3e e6 47 4c 3f b9 b6 d3 3f 6b 3b 82 3f
       0.46439603 0.7979721 1.6540138 1.0174383
000200 6e 67 04 3f 90 96 f3 3e 09 6c 3d 3f fc 14 02 3f
       0.5172032 0.47575808 0.73992974 0.5081327
000210 c3 5b 5f 3f c6 5a 61 3f 82 7e 8c 3f e0 7e 0a 3f
       0.8724939 0.88029134 1.0976107 0.54099846
000220 cc 13 95 3f 77 99 4a 3f ee b0 07 3f a6 db 51 3f
       1.1646667 0.7914042 0.5300435 0.8197578
000230 81 16 8c 3f 6e 5e 5c 3f a6 54 df 3e cf 9c 52 3f
       1.0944368 0.8608159 0.4361927 0.8227052
000240 77 bb 6f 3f 26 5a 22 3f fb 43 86 3f f7 e9 fa 3e
       0.93645424 0.63418806 1.0489496 0.49006626
000250 4b d3 f6 3e 80 91 78 3f b6 72 7d 3f 4a b0 17 3f
       0.4820808 0.97097015 0.9900316 0.5925337
000260 af e8 3b 3f ce e3 1c 3f c2 60 87 3f b8 ed 36 3f
       0.7340192 0.612851 1.0576403 0.7145648
000270 cf 0e 8a 3f 85 bb 24 3f 63 1a 7f 3f b3 37 26 3f
       1.0785769 0.6434863 0.9964964 0.6492874
000280 62 80 5e 3f ce 15 64 3f b1 4a 5b 3f 71 1b c9 3e
       0.86914647 0.8909577 0.85660845 0.3927875
000290 0f c1 39 3f 37 bf d7 3e 6f 6d ef 3e 6a e4 4f 3f
       0.7256021 0.42138073 0.4676318 0.8120791
0002a0 cb 9c 28 3f b4 25 b3 3e e9 b0 44 3f d8 90 8f 3f
       0.6586425 0.34989703 0.76832443 1.1216078
0002b0 44 09 b4 3f b7 f1 1c 3f 2e 19 83 3f d7 93 3f 3f
       1.4065328 0.6130633 1.0242059 0.7483496
0002c0 6a 54 19 3f 3e a7 4d 3f 1a 38 1f 3f 73 03 ab 3f
       0.5989443 0.80333316 0.6219498 1.3360428
0002d0 42 28 8e 3f aa a1 7f 3f 94 df 54 3f 08 39 ed 3e
       1.1106036 0.99856055 0.83153653 0.46332574
0002e0 8d 79 11 3f 67 0d 4d 3f 5c f5 fc 3e 7f 88 2d 3f
       0.56826097 0.80098575 0.49405944 0.677864
0002f0 a1 fd 8e 3f 17 81 6d 3f 00 0e 14 3f 90 24 7d 3f
       1.1171151 0.927751 0.5783386 0.98883915
000300 02 c6 31 3f b7 6d 47 3f 84 f8 81 3f 2c ed fa 3e
       0.6944276 0.77901787 1.0153966 0.49009073
000310 c3 f4 5d 3f 4c 0c 2b 3f 09 dc f8 3f 4e 9f de 3e
       0.867016 0.6681564 1.9442149 0.43480915
000320 b3 aa 8b 3f 9d c9 c0 3e 0b c1 b5 3e a2 db 79 3f
       1.0911468 0.3765382 0.35498843 0.9760076
000330 55 52 64 3f 3b c1 86 3f af 47 46 3f 15 cb 02 3f
       0.8918813 1.0527719 0.7745313 0.5109113
000340 3b fa f7 3e c0 db 73 3f bf 2c 33 3f 3a 8f fd 3e
       0.48433098 0.95257187 0.6999015 0.49523336
000350 7a 1b 12 3f ff b9 ee 3e 17 3b 30 3f ed f6 04 3f
       0.57073176 0.4662628 0.68840164 0.5193928
000360 5d da ae 3f 60 d3 5a 3f aa 5e 43 3f 6a 51 0c 3f
       1.3660389 0.8547878 0.7631632 0.5481173
000370 47 2c 57 3f 94 74 75 3f c2 33 28 3f 9b fe 40 3f
       0.84051937 0.9588101 0.65703976 0.753885
000380 1f 45 19 3f 9d b4 5c 3f a6 c0 10 3f 22 23 c9 3e
       0.59871095 0.86213094 0.5654396 0.39284617
000390 5a c7 75 3f 6e c5 08 3f 6f 79 19 3f 6a 44 49 3f
       0.9600731 0.53426254 0.5995092 0.78620017
0003a0 1f 85 25 3f 2a 08 00 3f f3 1b d1 3e d1 de 7d 3f
       0.6465625 0.5001246 0.40841636 0.99168116
0003b0 f9 fc 84 3f 9e 2f 85 3f c4 69 06 3f 25 66 b5 3f
       1.0389701 1.0405157 0.52505136 1.4171797
0003c0 ae 53 20 3f f1 d1 6d 3f af 00 7e 3f 87 66 06 3f
       0.62627685 0.9289847 0.99219793 0.52500194
0003d0 3d 3a 71 3f ab bd 69 3f c4 88 65 3f 71 15 94 3f
       0.9422949 0.91305035 0.8966181 1.1569043
0003e0 b1 6e 44 3f f2 0d 68 3f d5 56 19 3f 84 eb 89 3f
       0.767314 0.9064628 0.5989812 1.0774999
0003f0 53 21 01 3f 8f 27 83 3f 0b 77 0d 3f 11 6c f2 3e
       0.50441474 1.0246447 0.5525977 0.47348073

bn1.bias f4 [400]
000000 8a 12 e2 bd ef ee 86 be be 8f 9a be 9e d4 67 bc
       -0.11038692 -0.26354167 -0.30187792 -0.014149813
000010 dc 5c c0 be 57 c9 f1 be 73 18 bf bd 72 2e 1a be
       -0.37570846 -0.47223923 -0.09330835 -0.1505678
000020 f4 df fd 3c 5c 28 03 bf 6b de 77 be a2 6d 09 bd
       0.030990578 -0.5123346 -0.2420594 -0.03355182
000030 d2 cb a4 bd f7 40 4c be 1a c9 fe be 1d be 5f bd
       -0.08046688 -0.19946657 -0.49762803 -0.054624666
000040 0d 6c 82 be 95 0c bc be 9b 12 20 be 79 39 72 be
       -0.2547306 -0.3672835 -0.15632097 -0.23654737
000050 bd a3 38 be a6 16 4e be 42 73 6c be 80 ad 05 bf
       -0.18031211 -0.20125827 -0.23090842 -0.52217865
000060 28 48 ec bd 67 57 08 be 7a cc cf be 5f 0c a0 3a
       -0.115372 -0.13314591 -0.4058569 0.0012210718
000070 3f 23 43 3e 4e c8 11 be 5c da 0e bf 75 02 81 be
       0.19056414 -0.14236566 -0.5580194 -0.25197187
000080 c0 ba 94 be cb 6b 47 be 5f ce d4 bc 85 08 04 be
       -0.2904873 -0.19474714 -0.025977312 -0.12893875
000090 af 4e bb be 6c a0 9c be e8 1e bc be e7 ca a9 be
       -0.36583468 -0.30591142 -0.3674233 -0.33162615
0000a0 fb 2a e3 be 77 b4 cb be 46 be b6 be ac f5 04 bf
       -0.4436873 -0.3978612 -0.35692042 -0.51937366
0000b0 5a 45 b6 be 46 64 63 be f7 5f 92 be d4 83 93 be
       -0.35599786 -0.2220622 -0.2858884 -0.28811514
0000c0 7f c7 1c bd c2 e1 f3 be 6c e4 e7 be 3e f1 ad be
       -0.03827619 -0.47633177 -0.4529146 -0.33973116
0000d0 1f ef 1a 3c e2 f0 db 3c d2 2d 87 be 30 51 ba be
       0.009456425 0.02684826 -0.26402146 -0.36390066
0000e0 ab 02 a1 bd 14 22 68 be 26 39 bd be bb 0b 93 be
       -0.07861837 -0.2266925 -0.36957663 -0.28719887
0000f0 a3 2a e8 be 81 0f 75 be e6 db ea be 5b 92 ec 3e
       -0.4534503 -0.23931696 -0.45870894 0.4620541
000100 52 a8 4b be 0f 2a fe be 0f 07 81 be 2b 60 94 bd
       -0.19888428 -0.49641463 -0.25200698 -0.07244905
000110 26 8b e8 be 2c af 1c 3e 84 8e 8b be 36 1f e7 be
       -0.45418662 0.15301198 -0.27257168 -0.45141
000120 41 a2 e3 be 36 8e 8f be d3 4a 80 bd 48 fc 9e be
       -0.44459727 -0.28038186 -0.062642716 -0.3105185
000130 5b 5e b7 bd 60 95 94 be fb 1e 33 be dc dc b6 be
       -0.08953544 -0.29020214 -0.17492287 -0.35715377
000140 1a 73 fe 3c d2 17 ef be e1 5e ac bc fb 51 4d be
       0.031060744 -0.4669786 -0.021041336 -0.20050804
000150 13 ee c6 bd 53 ec 05 bf 71 b3 cf be a2 64 a5 be
       -0.09713378 -0.5231373 -0.4056659 -0.3230334
000160 4c a7 80 bd 0a 45 1f bc 47 da 01 bd b8 64 06 be
       -0.06281909 -0.00972105 -0.031702306 -0.13124359
000170 76 52 c2 be b7 55 e3 be 41 84 01 bf 8a d3 ea be
       -0.37953538 -0.44401333 -0.5059243 -0.45864516
000180 48 9c 9f be 95 c9 98 be b3 f1 76 be f7 dc 8c be
       -0.3117392 -0.29841295 -0.24115638 -0.27512333
000190 f1 bd 93 be 05 9b 8d be 9e 92 88 bd ef 23 59 be
       -0.2885585 -0.27657333 -0.0666859 -0.21205114
0001a0 0d fc 68 be d9 53 9c be e7 50 5f be 30 23 ed bd
       -0.227524 -0.3053272 -0.21808206 -0.11578977
0001b0 2d 56 c3 be 2b 8c bc be 20 f1 6f be bb 39 48 be
       -0.38151684 -0.3682569 -0.23431826 -0.19553272
0001c0 1a 24 91 be dc b9 65 be 8f f4 0d 3e 52 ee 37 bd
       -0.28347856 -0.22434181 0.13862823 -0.044905014
0001d0 5a e1 e9 be ac 5a e1 bd 51 ab 01 be 22 6e b3 be
       -0.45679742 -0.110036224 -0.12663008 -0.35044962
0001e0 ce c4 9b be 9c 76 a9 be bd 46 ed be 05 7c 8d be
       -0.30423588 -0.33098304 -0.46343032 -0.27633682
0001f0 dc 0d 86 be 5b 42 e8 bd c5 36 95 be 65 c0 8e 3e
       -0.2618245 -0.11340781 -0.29143348 0.2788116
000200 b8 fa 16 be 90 88 b4 be 2b 7d b4 be d3 1d c3 bd
       -0.14744079 -0.3526044 -0.35251746 -0.09527173
000210 67 9a c8 38 1c f4 ae be 47 b2 f4 be a2 76 a5 be
       9.565503e-05 -0.34170616 -0.47792265 -0.32317072
000220 19 43 c2 be 53 e5 86 be bc 38 bd bd 2b 78 c8 be
       -0.37941816 -0.26346835 -0.09239337 -0.3915418
000230 da 88 ce bd ad be a8 be ae ce 83 ba 3c d9 0f bf
       -0.10084696 -0.32957974 -0.0010056102 -0.5619085
000240 b3 bd a4 be 2d bf 8b be 76 70 39 3e 59 89 01 be
       -0.3217598 -0.27294293 0.18109307 -0.1265005
000250 36 35 54 be 9f 80 d6 be 50 63 ba bc de b7 08 3d
       -0.20723423 -0.41895005 -0.022752434 0.033378474
000260 67 54 c4 be 6b 34 18 be ce 9a f2 be 7d b8 39 be
       -0.38345644 -0.14863746 -0.47383732 -0.18136783
000270 1a a9 fc be b3 7a cd bd 41 0e a0 be 9e 07 b6 be
       -0.49347764 -0.10033169 -0.31260875 -0.35552686
000280 5c b4 28 be 44 f5 2c bf 3c a2 d4 be 9a 05 44 be
       -0.16475052 -0.67561746 -0.41530025 -0.19142762
000290 4c 55 a2 bd 05 d4 89 bd cb 9d d5 be d8 d9 f3 be
       -0.07926425 -0.06729893 -0.4172195 -0.4762714
0002a0 84 d6 ff bd 32 26 7f bd 00 ff 0f bf d5 a7 45 be
       -0.124920875 -0.062292285 -0.56248474 -0.19302304
0002b0 b0 2f 4f be 27 26 bd bd f0 53 99 be 01 45 37 be
       -0.20233035 -0.092357926 -0.29946852 -0.17897417
0002c0 61 52 fa be db 34 e4 be 35 80 a2 be ec ab 35 be
       -0.48890975 -0.44571576 -0.3173844 -0.17741364
0002d0 67 b6 cd be 83 34 6b be af 6e a6 bd a5 d1 9b bc
       -0.40178224 -0.2296925 -0.0812658 -0.019020865
0002e0 16 69 1a be 22 29 78 be 0f f5 cd be e6 02 65 be
       -0.1507915 -0.24234441 -0.40226027 -0.22364387
0002f0 35 72 b8 be 52 58 81 bd 78 95 12 be 54 fe 11 be
       -0.36024633 -0.06315674 -0.1431483 -0.14257175
000300 bd b7 99 be 0b b5 f2 bd ec 94 b5 be b3 ad 1b be
       -0.30022994 -0.118509375 -0.3546518 -0.1520298
000310 5b 38 8e be d4 ce 85 be b0 b3 b0 3d 86 cb b0 be
       -0.2777737 -0.2613436 0.08628023 -0.34530276
000320 d2 e4 aa 3c 2d 3e 0c be c4 ca 8d be e1 88 ad bd
       0.020861063 -0.13695593 -0.2769376 -0.08473373
000330 bc b2 38 be 97 10 18 bf 1f b9 b8 bd 0b c9 80 be
       -0.18036932 -0.59400314 -0.09019684 -0.25153384
000340 f7 9d b8 be 55 b5 ec 3c cd a1 3a be 12 8e 32 be
       -0.36058018 0.02889506 -0.18225785 -0.17437008
000350 0f 40 ee bd f3 ce c6 be bb 20 8d be b9 aa 8b be
       -0.11633312 -0.38829765 -0.27564034 -0.2727869
000360 17 30 7d be e2 ff 0e bf 38 4d 04 3e 9e a0 92 be
       -0.24725376 -0.55859196 0.12920082 -0.28638166
000370 19 e5 77 be 69 fa 65 bd 5b c7 a4 be 8d f0 5c be
       -0.24208488 -0.056147013 -0.32183346 -0.21576138
000380 84 d9 d6 be 8a ca 44 bc 53 26 7f be 28 0f e1 be
       -0.41962826 -0.01201118 -0.24916963 -0.43956876
000390 5e 97 d2 be 4b 16 01 be 95 7a a9 be 0c a0 6b 3d
       -0.4113111 -0.1260616 -0.33101335 0.05752568
0003a0 df 09 c0 bd 14 7d c7 be ee a3 e1 bd 3f ea f9 be
       -0.09376883 -0.38962615 -0.11017595 -0.48811528
0003b0 e2 a8 a8 be 0a 91 54 bc 23 6a f2 be dd 4f db 3c
       -0.32941347 -0.012974033 -0.473466 0.02677148
0003c0 35 b5 9a be 1f 91 b1 be 24 21 e0 bd 69 a0 9a bd
       -0.30216375 -0.3468103 -0.10943821 -0.07550127
0003d0 12 1f 5e 3d f6 1a b2 be 9c 3f c8 be cc ab 19 3e
       0.05422885 -0.34786195 -0.3911103 0.15006942
0003e0 e3 88 f5 be e9 24 7a be 3c 8d c1 be 78 d7 9c be
       -0.47956 -0.24428143 -0.37803066 -0.3063314
0003f0 0a 08 41 be 7d e4 d5 be 47 4a 11 be 6a d6 a1 be
       -0.18850723 -0.41775885 -0.14188491 -0.31608897

bn1.running_mean f4 [400]
000000 db 76 42 3e 2b 63 b2 be 4a f1 24 bf d0 9e 18 3d
       0.18990652 -0.34841284 -0.6443068 0.03726083
000010 d5 ce bc be 04 a0 52 3e ff a4 da 3e 34 5b e6 be
       -0.3687655 0.20568854 0.42704007 -0.44991457
000020 6a 49 ef 3e de 6f 86 3e 5a fa 94 3f d6 8b 02 bf
       0.46735698 0.26257223 1.1638901 -0.5099462
000030 7d 93 42 3d 6c b4 d9 bc 2a d6 21 bf ba 4f aa bc
       0.047503937 -0.02657529 -0.63217413 -0.02078997
000040 c4 2d 3b be 26 09 cf be 8c 3f 4f be 71 29 8c 3e
       -0.18279177 -0.40436667 -0.20239085 0.27375367
000050 fc 08 c9 be 47 5c 5a bd 1b 52 2d 3f 9c ac 81 3f
       -0.39264667 -0.05331066 0.6770341 1.0130801
000060 d5 f4 b1 be 81 b2 0e bf 9e 8f df be 21 1b 26 3e
       -0.34757105 -0.55741125 -0.4366426 0.16221286
000070 67 a6 3d 3f 6d 87 a0 be 28 ce 77 be c4 f7 02 3f
       0.74082035 -0.31353322 -0.24199736 0.5115931
000080 87 e4 ac 3e 57 f6 10 be e7 41 98 3e 61 57 ea be
       0.33768103 -0.14156471 0.2973778 -0.4576979
000090 fb e9 14 bf cd 7c 5c 3e 60 d3 09 3f 26 05 f0 be
       -0.58169526 0.21531983 0.5383816 -0.46878928
0000a0 82 a3 a4 3f b8 73 0a be f2 84 5e be 27 c0 64 3e
       1.2862399 -0.13520706 -0.21730402 0.22338925
0000b0 8f 8c b0 bf 78 e0 06 bf 4f 4d e7 3e 49 45 96 be
       -1.3792895 -0.5268626 0.4517617 -0.29349735
0000c0 5d bd 69 bf 4a fa 69 bf a1 1a 04 3f dd ab cc bf
       -0.9130457 -0.91397536 0.5160313 -1.5989949
0000d0 29 57 74 3e 36 35 d6 bd 03 08 a4 3e e0 05 26 bc
       0.23861374 -0.10459368 0.32037362 -0.010133237
0000e0 06 25 0e be 47 5f 8c 3d 22 d1 83 3e 36 ae da 3d
       -0.13881311 0.0685411 0.25745493 0.10677759
0000f0 32 03 a4 bf fe 05 82 bf 31 dd 7e bf 2e ed 52 bd
       -1.2813475 -1.0158079 -0.9955626 -0.051495723
000100 f9 73 e8 3d 18 f0 80 be 2d 02 55 be 1b 10 de be
       0.11350245 -0.25183177 -0.20801611 -0.43371662
000110 4a fb fa be 49 09 2b 3e 27 9a db 3e 81 49 27 3e
       -0.49019843 0.16702761 0.42891046 0.16336633
000120 fc 95 4a bf 7f 56 93 bd e9 24 8f bd c6 c9 3d 3e
       -0.7913511 -0.07194232 -0.06989462 0.18534002
000130 14 90 a3 3e 89 96 65 be 2a 3d 3d 3f e8 33 17 bf
       0.3194586 -0.22420706 0.73921454 -0.5906358
000140 a6 db b7 3b e9 a2 4e be b7 05 9f be 0e 6e 5d bd
       0.005610901 -0.20179333 -0.31059048 -0.054060034
000150 30 87 97 3e b8 12 0b 3e 56 7e 4e bf 2a ad 16 3f
       0.29595327 0.1358136 -0.80661523 0.5885798
000160 d7 a9 58 be c0 61 a1 3e 72 5a e5 3e 83 83 00 3f
       -0.21158539 0.3151989 0.44795567 0.5020067
000170 ca de c4 bf fc 05 18 bf 80 0c 5f bf 3d c3 29 3f
       -1.538049 -0.5938413 -0.8712845 0.66313535
000180 a7 bc c3 be 3b d1 a5 3e 9e 50 c8 3e 22 1d c8 bd
       -0.38229868 0.32386193 0.39124006 -0.09771182
000190 d3 8a 90 3d 31 44 a6 3d 5f af d3 be bd 58 56 3e
       0.070577286 0.08118475 -0.41344735 0.20932288
0001a0 87 d9 79 bf 74 64 e2 be 50 90 3b 3f 2e 72 89 3e
       -0.97597545 -0.44217265 0.7326708 0.26844925
0001b0 5d 0f 0b bf 5c b1 9b be 98 3d 82 be c3 51 13 3f
       -0.5432032 -0.30408752 -0.25437617 0.57546633
0001c0 e1 f1 ab bc b5 cc ef bd 57 79 91 bd ab 89 30 3f
       -0.02098936 -0.11708967 -0.07103222 0.68960065
0001d0 c5 69 bb be c0 6d 5e 3d 72 10 90 be f8 8e b2 3d
       -0.36604133 0.054303885 -0.28137547 0.087186754
0001e0 80 7c 37 be 6e 90 6d be 62 8b 72 bf 0f 0e 5a 3f
       -0.17918587 -0.23199627 -0.9474393 0.851777
0001f0 da 83 0e bf 24 d4 4c bb 75 70 66 3d 0c c1 03 3f
       -0.5566994 -0.0031254375 0.05625959 0.5146644
000200 5f 05 01 3f 60 24 14 bf ce 3e 4c 3f 99 6b ad be
       0.5039882 -0.57868004 0.7978333 -0.33871153
000210 c1 7c f6 3e f4 00 c2 be 68 61 82 be 7f c4 f0 be
       0.48142055 -0.37891352 -0.2546494 -0.47024915
000220 07 52 a4 3e 19 05 e5 3e 2b 05 15 bf 9e d8 f0 3d
       0.32093832 0.44730452 -0.5821101 0.117600664
000230 4c 6a 9b 3c b2 55 ff be 45 c1 56 3f a3 1b 1f bf
       0.018971585 -0.49870068 0.83888656 -0.62151545
000240 14 b6 82 bd 73 57 7a 3f 18 f4 3c bd 45 2b f3 3e
       -0.06382385 0.97789687 -0.046131223 0.4749395
000250 ca bf 39 3f 0b ad 5c 3e dd 50 f6 bd 2f 44 68 be
       0.7255827 0.21550386 -0.12027142 -0.2268226
000260 3a 16 1e bf b2 8d f1 3e c8 8e ca 3e da 6b ad 3f
       -0.61752665 0.47178417 0.39562058 1.3548539
000270 dd 96 d8 be 28 41 12 3f fe 88 51 bf 60 98 74 3c
       -0.423026 0.5713067 -0.8184966 0.014928907
000280 8c 8d 41 bb 9b 08 cc be 88 e5 21 be 28 62 10 3f
       -0.0029533831 -0.39850315 -0.15810215 0.56399775
000290 48 4b fa bb ba 62 aa bf cd 91 4b 3e 3b e0 c5 bf
       -0.0076383688 -1.3311379 0.19879837 -1.5459055
0002a0 f6 3c 20 3f 1e 53 22 3f 36 25 14 bf 28 9a 42 3e
       0.6259302 0.63408077 -0.5786928 0.19004118
0002b0 fa cf 1a 3d 76 61 03 bf bb a9 1a bf 81 6b 36 3d
       0.037796 -0.5132059 -0.6041524 0.044536117
0002c0 b6 e0 f1 3e 03 89 09 3f 93 2e 17 be 42 7b ad be
       0.47241753 0.5372469 -0.1476386 -0.338831
0002d0 1b c6 43 bf 34 47 bf 3d c9 ec c2 3e fc 2f 4a be
       -0.7647416 0.09339753 0.38071278 -0.19744867
0002e0 57 95 02 3e 10 6d 84 3e 45 89 1c 3e d0 e0 f1 3c
       0.12752281 0.25864458 0.15286739 0.029526144
0002f0 80 3c a7 bb 7f d2 c1 be f9 7f 64 3d 60 50 b5 3d
       -0.0051036477 -0.37855908 0.055786107 0.08853221
000300 28 c0 9e bf 12 05 fc be 29 23 ed 3e 77 27 87 bf
       -1.2402391 -0.49222618 0.46315888 -1.0558919
000310 81 96 bd bf 48 54 a6 3d 52 1f 21 3e e8 36 f5 be
       -1.4811555 0.08121544 0.15734604 -0.47893453
000320 9b 6e a5 3e 04 38 8e bf 9e a9 09 bf 84 9c a8 be
       0.32310948 -1.1110845 -0.5377444 -0.32931912
000330 26 13 a1 be b4 51 2a be bf 9f 81 3f f6 ce ff 3d
       -0.31459922 -0.1663273 1.0126876 0.124906465
000340 26 6e 8b 3f 8e 01 cc 3e 37 30 80 3e d2 3f 81 bc
       1.089299 0.39844936 0.25036785 -0.015777502
000350 18 13 04 bf c3 cf 87 be c2 aa e0 be 4c 18 18 3e
       -0.51591635 -0.26525697 -0.43880278 0.14853019
000360 07 a6 8e 3d 4e f3 49 bf 20 3b f7 3d 37 1c 77 3f
       0.06965261 -0.7888688 0.12071824 0.9652743
000370 69 91 02 3e e3 91 d7 bb 07 b7 2f be e0 91 55 3f
       0.12750782 -0.0065786703 -0.17159663 0.8342571
000380 17 3c c3 bd 93 45 e9 3e b7 26 d3 3e 7a 25 69 bf
       -0.095329456 0.45560893 0.41240475 -0.9107281
000390 a1 ce 3f bf a1 14 65 be 95 75 01 bf 41 be 46 3f
       -0.74924666 -0.2237115 -0.5057004 0.77634054
0003a0 02 93 96 bd 38 3d 6b 3e 8d 9d 01 3e 91 6a ba be
       -0.07352258 0.22972572 0.12657757 -0.3640943
0003b0 00 7e e0 be 91 12 f4 3d 65 2f 2a bf 56 88 0f 3e
       -0.4384613 0.11917604 -0.6647857 0.14016852
0003c0 f7 53 45 be 7e 39 5f be 53 de 18 be 1d 8d 2f be
       -0.19270311 -0.21799275 -0.1492856 -0.17143674
0003d0 db d9 93 3f 08 ab 81 bd d4 cd 96 bf c1 83 cf 3e
       1.1550859 -0.0633145 -1.1781564 0.40530208
0003e0 c8 0c 80 be 00 7c bb be aa aa d6 be 10 d8 bb bd
       -0.2500975 -0.36618042 -0.4192708 -0.0917207
0003f0 a2 dd 18 bf 6e c1 d3 3e 9d b1 ff be dd e6 1f bf
       -0.59713185 0.41358513 -0.49940196 -0.62461644

bn1.running_var f4 [400]
000000 44 dc 2f 40 59 a2 a9 40 83 25 a8 3f 1e 52 a3 3f
       2.747819 5.301068 1.3136448 1.2759435
000010 20 e1 36 40 c9 6b 5a 3f cf 39 9e 3f be 2e 94 3f
       2.8574905 0.8532072 1.2361392 1.1576765
000020 bd bf 64 3f e9 68 ed 3f 2c 2b 0a 40 50 34 8a 40
       0.8935507 1.8547641 2.158885 4.318886
000030 81 ee 43 40 e5 c5 5c 3f 29 70 6a 40 05 cb 2c 40
       3.0614321 0.86239463 3.6630957 2.6998913
000040 fb 73 4f 40 06 d6 45 3f 97 69 5c 40 d0 c9 9a 3f
       3.241454 0.772797 3.4439447 1.2092838
000050 3a a4 30 40 63 f1 04 40 00 da 87 3f f7 d1 b5 3f
       2.7600236 2.077233 1.0613403 1.4204701
000060 86 7e a0 3e ba d7 2e 40 37 51 45 3f e9 d4 82 40
       0.3134653 2.731917 0.7707705 4.08849
000070 3c cd 8f 3f 8d a5 64 40 cf ba f5 3e 57 ad 69 3f
       1.1234508 3.5726044 0.47994086 0.9128012
000080 fe 07 02 40 f1 22 81 3f 64 de d4 40 c2 6d ee 3e
       2.0317378 1.0088788 6.6521473 0.46568114
000090 41 52 61 3f 1b aa 80 3f 47 fc 70 3f d5 6e c1 3e
       0.88016135 1.0051912 0.94134945 0.3777987
0000a0 5c ab e6 3f bc c6 0a 3f 31 96 52 40 65 4b 05 40
       1.8021045 0.54209495 3.290417 2.0827267
0000b0 59 f0 02 40 d8 73 01 3f 48 9b 60 3f b4 90 66 3f
       2.0459197 0.5056739 0.8773694 0.9006455
0000c0 58 a1 bb 3f a8 ac 09 3f e2 41 b7 3f 88 8b cc 3f
       1.4658613 0.5377908 1.4316981 1.5980082
0000d0 9d 60 cb 3f ad e7 01 40 4a 64 d8 3f e6 65 00 40
       1.5888859 2.0297654 1.6905606 2.0062194
0000e0 28 23 de 3e b5 41 2f 40 93 2f 19 40 02 6e a3 3f
       0.43386197 2.7383854 2.3935287 1.2767947
0000f0 1e c2 2a 3f c2 51 d9 3f 3f d8 42 3f 03 0c d6 3f
       0.6670245 1.6978076 0.76111215 1.6722416
000100 3c 2a c4 3f 1a de 3f 3f 94 2a 0e 40 3e e0 1e 3f
       1.5325389 0.74948275 2.2213488 0.62060916
000110 77 dd 25 3f fe 5d 86 3e 48 3c 9b 3f 9d 54 de 3f
       0.64791054 0.26243585 1.2127771 1.7369572
000120 94 ab f5 3f 72 f8 6a 3f 59 f1 32 3f c5 e7 10 40
       1.9192986 0.9178535 0.6989952 2.264146
000130 0d 12 28 3f 18 7a 36 3f 21 6e 0c 40 a6 6c 6e 3f
       0.65652543 0.7128005 2.1942217 0.93134534
000140 35 0f b3 40 ba c3 7b 40 7f 3c 92 40 e2 35 56 3f
       5.5956063 3.9338212 4.569885 0.8367597
000150 d5 3c c3 3f 50 7a 24 40 7c db 2d 3f c1 7d 00 40
       1.525294 2.5699654 0.6791303 2.0076754
000160 e4 01 4a 40 31 42 a4 3f b8 53 d4 40 8d fa 8b 40
       3.1563654 1.28327 6.6352196 4.374335
000170 90 7f f7 3f cd 63 a7 3f 4a 91 81 3f d9 8a 3e 40
       1.9335804 1.3077332 1.0122464 2.9772246
000180 46 3c 6c 40 48 92 ce 3e 17 22 24 3f 00 4f 15 40
       3.6911788 0.4034598 0.64114517 2.3329468
000190 d5 f3 07 40 79 c3 70 3f a8 fc 20 3f 4e 8b 19 3f
       2.1242573 0.9404827 0.6288552 0.5997819
0001a0 83 81 1f 40 bf 9b 8b 3f 16 56 96 3f d1 c4 35 3f
       2.4922798 1.0906905 1.1745021 0.71003443
0001b0 48 2d eb 3e a6 74 19 40 f2 bd 84 3f 9d a1 c0 3f
       0.45932984 2.3977447 1.0370467 1.504932
0001c0 cb 00 c7 3e 82 b4 1d 40 b4 db d1 3f 33 ee fc 3f
       0.38867792 2.4641423 1.6395173 1.9760193
0001d0 73 15 f7 3f e6 ac 2d 3f a7 04 b1 3f 88 f4 8b 3f
       1.9303421 0.6784195 1.3829545 1.0934
0001e0 50 fd 2f 40 45 9b ef 3e 02 f0 6d 3f 2a db fe 3f
       2.749836 0.4679815 0.9294435 1.9910634
0001f0 66 fa 43 3f 19 c5 4c 40 d5 d2 58 3f b8 b6 07 40
       0.7655395 3.19953 0.84696704 2.1205273
000200 09 0d 45 40 c1 0e 02 40 93 fe 0e 40 a0 22 8d 3f
       3.0789206 2.0321505 2.234288 1.1026192
000210 82 15 2f 40 ba 14 8d 3f f6 83 a2 3f 2e 9f de 40
       2.7356877 1.102195 1.2696521 6.956931
000220 ed 46 34 40 d6 3e fc 3f 28 bf 92 3f ce 92 ea 3f
       2.816829 1.9706676 1.1464586 1.8326051
000230 8f 8f 23 40 95 f1 01 3f 3a d8 d0 40 c8 0e 3b 3f
       2.5556371 0.5075925 6.526395 0.7306943
000240 b6 9d 17 40 4d 01 83 40 22 a6 53 3f 52 03 70 40
       2.369001 4.093909 0.82675374 3.7502027
000250 0a 57 0e 40 85 c4 7c 3f fc cc 73 3f f6 5f 85 3e
       2.2240624 0.98737365 0.95234656 0.26049775
000260 92 7e d6 3e aa cf 47 3f e0 c0 a9 3f 3d 46 9c 3f
       0.4189344 0.78051245 1.3261986 1.2208935
000270 83 c3 ee 3f 17 09 1f 40 38 09 c9 3f a5 5a 9c 3f
       1.8653415 2.4849298 1.5705938 1.2215163
000280 39 ca 46 3f dd 12 80 3f 79 10 80 3f 81 73 b0 3f
       0.7765232 1.0005757 1.0005027 1.3785249
000290 95 07 8f 40 54 43 dd 3f 1d d2 8d 3f 48 5c 2a 40
       4.4696755 1.7286172 1.1079746 2.6618824
0002a0 a6 6a 83 40 55 39 a6 3f ef 14 16 3f 02 0f d9 3f
       4.1067686 1.2986246 0.5862569 1.6957705
0002b0 06 ae 84 3f 45 1a 58 3f b4 2f 64 3f fb 6a 82 3f
       1.0365608 0.84415084 0.8913529 1.0188898
0002c0 f1 9d 7d 3f f7 30 25 40 b2 30 18 3f 06 e7 e3 3f
       0.99069124 2.5811136 0.59449303 1.7804878
0002d0 82 19 8b 3f ac ea 14 40 a7 1e a6 3f 59 ef 65 40
       1.0867159 2.3268232 1.2978104 3.5927336
0002e0 9e 47 11 40 49 a2 18 40 80 19 ad 3f 69 23 2f 3f
       2.2699962 2.384905 1.3523407 0.68413407
0002f0 d1 c7 a7 3f 50 a1 16 40 8f db de 3f 14 61 ae 3e
       1.3107854 2.3535957 1.7410754 0.3405844
000300 47 d7 e0 3f b2 7f a0 3f 98 7c 03 40 a5 a0 a5 3f
       1.7565697 1.253897 2.0544796 1.293965
000310 d8 06 01 40 1f e6 90 3f db 36 3d 40 3a e8 8a 3f
       2.0160427 1.1320227 2.956473 1.085212
000320 bb b3 fa 3e 0c dd 8e 3f 06 b0 f5 40 bf 4b 28 40
       0.48965248 1.1161208 7.677737 2.6296232
000330 d4 96 92 40 7f 46 b7 3e 94 e5 02 40 cb 8f c6 3f
       4.5809116 0.35795972 2.0452623 1.5512632
000340 65 35 99 3f 44 b9 5b 3f 88 04 0b 3f e9 16 84 3f
       1.196942 0.8582957 0.5430379 1.0319492
000350 53 7f b1 3e cd fe a6 3f 09 7b 1f 3f 5a e3 31 40
       0.34667453 1.3046509 0.6229711 2.7795014
000360 98 a8 17 3f e4 de b7 3f c9 f8 5c 40 e1 01 ec 3f
       0.5924163 1.4364896 3.4526846 1.8438073
000370 ff 25 da 3f ee fc 4a 3f 3c 17 b2 3f ab 40 54 40
       1.7042845 0.7929219 1.391334 3.316447
000380 46 94 74 3f 79 bb e5 3e 7a a5 c1 3f c0 c3 a1 3f
       0.9553875 0.44869593 1.5128624 1.2637863
000390 b1 f2 c8 3f b8 9a f4 3e db 13 a9 3f 9a fe 10 41
       1.5699064 0.4777429 1.3209184 9.062159
0003a0 1c 03 fd 3e 38 e1 4a 3f 7c b9 ff 3f 67 32 98 3f
       0.49416435 0.79249907 1.997848 1.1890382
0003b0 e1 3f 86 3f 63 85 46 3f 60 72 2f 40 a1 de 36 3f
       1.0488244 0.7754728 2.741356 0.71433455
0003c0 21 83 a3 3f 45 71 23 3f 18 ac bb 3e 5f f9 30 40
       1.2774392 0.6384471 0.36654735 2.7652204
0003d0 ee dd 70 40 46 09 c5 3f ff f6 a0 3f 00 51 81 3f
       3.7635455 1.5393455 1.2575377 1.0102844
0003e0 63 aa e6 3f 14 2e 59 3f ff 16 03 3f d0 9e 89 3f
       1.8020748 0.84835935 0.51206964 1.0751591
0003f0 cb f9 b1 3f 88 13 64 3f 0a dc fd 3e f8 fb 3f 3f
       1.3904356 0.890923 0.4958194 0.7499385

fc2.weight f4 [300, 400]
000000 56 21 10 3d f6 cf 01 bc d2 c3 94 be df e3 c4 3d
       0.03518804 -0.007923117 -0.2905565 0.096137755
000010 d1 e5 2c 3e f7 b0 ca 3c 6d 46 b8 be b1 85 59 be
       0.16884543 0.024742587 -0.3599123 -0.21242405
000020 cd f1 81 be 11 e4 49 3e df dd c2 3d d3 5f f4 bd
       -0.25379792 0.19715907 0.09514975 -0.119323395
000030 00 6d fa be c7 a5 9a bc 8b f5 62 3e 77 b2 93 bc
       -0.48911285 -0.018877877 0.2216398 -0.018029435
000040 29 54 ab be c9 79 fe 3d 61 54 09 3e b1 fd 41 be
       -0.33462647 0.124255724 0.13411094 -0.18944432
000050 74 01 a3 3d e4 24 e7 be 40 e4 bb bd f0 e9 2a 3d
       0.079592615 -0.45145333 -0.091743946 0.041727006
000060 7d 7c de 3d 21 0f 5e 3e 53 3f 18 3e 86 e5 a5 bc
       0.10863588 0.21685459 0.14867906 -0.020251047
000070 4f fe 38 3d 3b e4 a0 be 42 07 d6 3c f4 cd a6 bd
       0.045164403 -0.31424126 0.026126508 -0.08144751
000080 c6 b7 80 3e 0d 2c cb ba 70 be b8 bd 50 e7 e4 bd
       0.25140208 -0.0015500799 -0.09020698 -0.11176932
000090 4d b3 a3 be 80 53 a3 bb d0 a3 2b be 6d 96 d5 bc
       -0.31972733 -0.004984319 -0.16761708 -0.026072705
0000a0 94 4e 82 3e 13 12 2d be df 2e b4 bd 45 86 84 bd
       0.25450575 -0.16901426 -0.087980025 -0.064709224
0000b0 8d 59 47 be 09 25 4a be 65 9d 89 be 50 ca b6 3d
       -0.19467755 -0.1974069 -0.26877895 0.08925307
0000c0 5d 65 ae bc 88 a1 d5 3d 6c 4e a9 bd 6f 77 87 3e
       -0.021288568 0.104312 -0.08266911 0.26458308
0000d0 3e 40 94 3e 45 11 22 3e 8c 78 b4 bd 36 0a b1 3c
       0.28955263 0.158269 -0.08812055 0.021611314
0000e0 6a 8d 99 be 59 2f 9f 3c 7d fe a5 be ed 08 60 be
       -0.29990703 0.019431757 -0.32420722 -0.21878405
0000f0 15 64 fd 3d d2 a5 ec 3d 08 06 4b be 5f 49 0b bf
       0.12372605 0.11555065 -0.1982652 -0.5440883
000100 c0 28 4e be 51 41 88 bc ce ee b4 3d ce 25 4a be
       -0.20132732 -0.016632708 0.08834611 -0.19740984
000110 90 7a 8c bb 93 97 88 3b e9 10 ba be 58 db 36 bd
       -0.0042870715 0.0041684597 -0.36341026 -0.044642776
000120 85 aa a1 3d f6 df c4 be e1 e0 b9 be 00 b5 07 bd
       0.07893852 -0.3845212 -0.3630438 -0.0331316
000130 af 48 6e be bd 66 c5 bc c4 e3 40 bf fb ba 02 3e
       -0.23269914 -0.024096841 -0.7534754 0.1276664
000140 38 d4 0b bf 37 e2 a6 3e 11 f6 d1 bd 80 a0 be be
       -0.54620695 0.32594463 -0.102520116 -0.37231827
000150 a4 0a 65 be 0a 26 4e be 7a fa e2 3d d0 4b aa bd
       -0.2236734 -0.20131698 0.11082931 -0.08315241
000160 32 09 cc 3b 24 08 f3 bd 2c b2 fd 3c a5 7d 23 be
       0.006226682 -0.11866787 0.030968748 -0.15965898
000170 a4 fa 11 be c1 73 9d be 8d 3d b1 be 6f ee 1c 3d
       -0.14255768 -0.30752376 -0.34617272 0.038313325
000180 12 5b 74 3d 8a c4 31 3e 89 c4 50 3c 2e 7c c1 3d
       0.059657164 0.1736013 0.01274217 0.094475135
000190 2b 79 81 3d af 54 cb 3d 03 3a 38 be 7c b1 31 bc
       0.06321939 0.099282615 -0.1799088 -0.010845538
0001a0 a7 b5 a3 3d a0 56 38 3d 1d e2 0b 3e fe b3 33 be
       0.07993632 0.045004487 0.13660474 -0.1754913
0001b0 75 aa 24 3e cc d1 de bc 20 65 4a 3e dd 94 51 3e
       0.16080649 -0.027199648 0.19765139 0.20466943
0001c0 04 65 47 bd 15 2e 2b be 80 fc 22 be 02 b5 9d be
       -0.04868032 -0.16716798 -0.15916634 -0.3080216
0001d0 30 64 08 be 75 0b 9a bd 47 93 bc bd df db a8 bd
       -0.13319468 -0.075217165 -0.092077784 -0.08245062
0001e0 3a a7 5d 3d 40 ce f6 bd aa 02 41 3c bb 2a aa bd
       0.054114558 -0.12051058 0.01178042 -0.083089314
0001f0 3a 83 e7 3d d6 b3 dd bd 83 e6 8b bd d8 4e f7 be
       0.11304326 -0.108253166 -0.06831076 -0.4830234
000200 39 e1 3e 3e 41 64 84 3d d1 37 85 bd 7a 55 07 bd
       0.18640603 0.064644344 -0.06504787 -0.0330405
000210 38 ae 00 bf 86 80 c8 3d 0a f5 54 3d 4a 4e 0b bf
       -0.50265837 0.09790139 0.0519915 -0.54416335
000220 45 cf 66 bd a9 ed 5d bc 6e ab e1 3d 68 6b 82 bc
       -0.05635001 -0.013545432 0.11019026 -0.015920356
000230 15 ec a8 bd 1c 13 16 3c 2a 81 0d be 95 95 22 be
       -0.08248154 0.0091598295 -0.13818803 -0.15877374
000240 87 2c 8c bd f6 61 c0 bd 4a c6 83 be 4d 77 65 be
       -0.068444304 -0.093936846 -0.2573722 -0.22408791
000250 98 22 9b bd f3 50 83 bd ae 94 b8 be dd 76 0d bd
       -0.075749576 -0.06411924 -0.36050934 -0.034537185
000260 cb 27 55 3b 82 03 96 bd c3 53 13 3e e1 f4 9e bd
       0.003252494 -0.07324888 0.14387421 -0.07761551
000270 b9 ca 90 be 1d e4 61 bd b6 e9 6c 3d ce 31 92 be
       -0.28279665 -0.055149186 0.05784007 -0.28553623
000280 36 b8 cd bd e9 da 24 3d a7 8d 22 3d b4 a3 d7 be
       -0.10044901 0.04024783 0.03968587 -0.42117083
000290 b8 46 01 3e 06 6a 92 3d 22 4f 8b 3d 2d c7 32 3e
       0.12624633 0.071491286 0.06802203 0.17458792
0002a0 5c 56 af bd 70 8f c1 bd b7 b6 08 be ad 03 ef be
       -0.085613936 -0.09451187 -0.1335095 -0.46682492
0002b0 fa 70 22 be 91 17 d5 be b3 60 b9 be 4f af 23 3e
       -0.1586341 -0.41619542 -0.36206588 0.15984844
0002c0 55 b4 28 3e 07 47 a1 be 05 65 94 bd a4 ef 72 3e
       0.16475041 -0.31499502 -0.072458304 0.23724228
0002d0 44 d1 71 be 0d 48 09 be f5 90 e0 bd ee 5e 45 3d
       -0.23614985 -0.13406391 -0.10965148 0.048186235
0002e0 97 0e 96 be 1f 34 0a 3e 53 af 58 be 3a 46 54 bc
       -0.29308006 0.13496445 -0.21160631 -0.012956196
0002f0 dc d1 fa bd c0 c4 24 3d c6 3e d0 3d e5 25 e0 bd
       -0.12247059 0.040226698 0.10168223 -0.10944728
000300 f6 15 be bd e4 a4 e6 bc 84 e4 c8 bd 2c d3 3c be
       -0.092815325 -0.028154798 -0.09809211 -0.1843993
000310 bc a7 2e bd 88 f7 09 3d 4e 11 32 3e 8b ab d4 bd
       -0.042640433 0.03368333 0.17389414 -0.10384282
000320 53 77 9f 3c 68 07 c2 3d b2 f7 42 be a8 3a 2f 3e
       0.019466078 0.09474069 -0.19039801 0.1711222
000330 69 be 70 be 3d 1e d2 3d bb d7 ea bd eb 22 13 be
       -0.23510136 0.10259674 -0.114669286 -0.14368789
000340 91 48 03 bc 51 97 e7 be 3a bd 07 3c 40 18 f0 bd
       -0.008012907 -0.45232633 0.008284861 -0.11723375
000350 a4 a9 c3 bd ea 2f f7 bc 92 e5 54 3d 34 f0 b9 3d
       -0.09553841 -0.030174214 0.051976748 0.09079018
000360 3e ef 98 bd 32 04 0b be dd 79 28 bc cb 5f 8f be
       -0.07467507 -0.13575819 -0.010282961 -0.28002772
000370 57 1e 1a be 91 5b 18 bc 59 d8 05 3e f9 0b de bd
       -0.15050636 -0.009299175 0.13070811 -0.10842127
000380 56 c7 b4 3d 45 f9 92 bd b4 24 97 3e 90 a1 9b 3e
       0.08827083 -0.07176451 0.2952019 0.303967
000390 89 b4 d3 3d cb 95 4d be e9 61 33 bc 9f cd 93 3c
       0.10337169 -0.20076673 -0.010948637 0.018042384
0003a0 58 a6 27 3d a0 c5 32 bd f5 b5 33 3e e3 ad 1f be
       0.040930122 -0.0436455 0.1754988 -0.15593676
0003b0 f0 a9 fb be e1 77 6d 3e a1 9d c5 3d b4 ee dd 3d
       -0.4915309 0.23190261 0.09649206 0.10836545
0003c0 a4 cc 9e be 40 ec 81 3e 41 69 21 3d 26 d8 d2 bc
       -0.31015503 0.25375557 0.03940702 -0.025737833
0003d0 7a 90 cd 3d 86 95 03 be 2c f1 ff 3d 87 0d f0 3d
       0.10037322 -0.12850007 0.12497172 0.1172133
0003e0 4e f6 9c 3e e9 28 36 3d 35 02 80 bd f2 e2 f2 3d
       0.30656666 0.04447261 -0.06250421 0.11859693
0003f0 6d aa f9 be 5a 8e 57 3e 75 54 8a 3c f1 2a 14 bd
       -0.48762837 0.21050397 0.016885975 -0.036173765
