checkpoint_critic.pth (torch_old, 549446 bytes, 9 tensors)

fc1.weight f4 [400, 33]
00000000: 0a83 4abe f4e0 313d 5c8b 0dbd 697e 023f
00000010: 6b2b 463e 39f2 39be 2982 9bbe b855 e2bc
00000020: 51a7 a83e a228 7a3d b537 ecbd 5121 083c
00000030: 0f8f bbbd e079 cc3d 8216 85bd 1a16 a83c
00000040: 3603 14be a7e6 7bbe c322 48be 2baf 8bbe
00000050: 9919 62bd 6e08 97bd 0bad 993b e547 d2bd
00000060: d415 3cbd 3bdd aabd 537d 3bbd 9a9e 2d3d
00000070: dc43 983d 2a12 20bd 5e2b 973b 9dd0 eabc
00000080: 2474 113f 6992 84bc 5de1 24bd c69d adbd
00000090: 0f4e b23b 45eb 68be ac97 8fbe 341b 343c
000000a0: d33a 88bc 0d63 063e e88c 973c 604b 1bbb
000000b0: 567d 65bc 2b88 6bbc 9c4d 243c b1c6 9fbc
000000c0: b713 31bc fed0 353e 30f5 433d fe65 6d3d
000000d0: 521a 973d 5d48 1b3b 237a d43b c13d d8bc
000000e0: cf95 74bc 2551 193c 2c0f f13c 1533 803d
000000f0: a778 8a3c f4ab 1d3e 60e1 50bb a5ca 64bc
00000100: faba cbbc 65d4 843f 1927 bd3c 04b1 c93b
00000110: 025f 053c 2471 fb3c 01e0 3fbd 567d 27bc
00000120: b504 593d c6cf 52bb 6af6 b43c 59f4 2b3b
00000130: eaaa 22bb 547f 023b b093 5d3b 8352 e4bb
00000140: 4aad b3ba 165f 00bb ca31 dbbb 68dd 02bd
00000150: 24de 72bc f490 adba 6a50 8e3a 1c33 63b9
00000160: 0f11 b4b9 c327 b0bb 1330 393b 31cb e8b9
00000170: 3f70 dbbc cdd6 21bd e88f 89bb 28aa d4bb
00000180: 5d40 d8bc 63d2 19bd 5a60 d23f cc84 5fbe
00000190: 2d1b 333e b7a6 ac3c 6699 c03c fc88 ae3b
000001a0: b60c 473e 642d 1e3e 55cf 74bc 8ddc 48bd
000001b0: 4cb3 80be d600 b93d 3793 063e c80b 853b
000001c0: c327 d43d d598 3e3c dc68 d4bd ef7e 10bd
000001d0: 33aa 3bbe cd39 a13e d885 743d 0ebf c93a
000001e0: 2aa3 a63c 4715 3cbd 49bb a63d 66ff b8bd
000001f0: 3c04 023d 50c3 cc3c 5276 4d3d 00ce b4bd
00000200: 68bf acbb 08d7 62bc d5ac 383d 8ef2 383f
00000210: 3532 0fbe 2454 d9bd 2303 60bd f8fa 413e
00000220: 80e7 d3bc c652 913d 0f66 34bf 58f4 b13d
00000230: 083a b53b 614b 123c 3096 cc3c e166 92bd
00000240: 8b2c ab3c a6ee 33bd 94a4 05bb 0a76 123e
00000250: 4e7d 5cbe f049 a73e 5f37 0b3f 4d30 6bbd
00000260: 7eb0 d23b 4c39 c93c 2f82 043c 1672 5b3d
00000270: 94bf 9abc 2946 c63d 3a2f a23d 7c29 00bd
00000280: 53c6 953d 38ac 5cbc a6d2 443d a0c5 c43a
00000290: 2f2f d7be 1c7b 6e3d cb55 673d 54b3 693e
000002a0: e74e 07be 187a 873e 8e52 173d 6933 483e
000002b0: f8f0 2a3d 782e 373e 74d9 41be 9786 853d
000002c0: 9b65 d73b 37cc 7ebd a1a0 ecbb 9cd9 0d3c
000002d0: 7ba1 6ebe b76c 643d b9ad 50be a5c9 503c
000002e0: b60b d1bc 89fe 183c 3c06 a93c 8f29 fcbc
000002f0: 0437 2e3d 5466 153d 42f5 2dbe d4db 473d
00000300: cc1f e73b f0c2 273e e7e4 173d 1010 44bd
00000310: 604d 36bb b339 513e 0576 3e3e 8a7b 74bd
00000320: 6c3f 8a3d f55e 66bd a526 0cbe 6568 2c3e
00000330: 2e3f a7be 80e4 91bc f843 473d 74f6 9bbd
00000340: e4b8 193d c951 79bd 27dd 213d 7822 b4bc
00000350: 3484 83bd dc0d 54bd d031 903c b262 2dbe
00000360: 7594 3dbe 1334 33bf c1fc aebc ffa9 073d
00000370: 91b6 b23a 2a02 3fba c024 fbbc 98ca b73d
00000380: 83b9 093d 02b6 29bc ae6c af3c 5a34 febc
00000390: e2b4 9d3c 2308 9cbc 6e7e 523f 209a b5bd
000003a0: 5c77 c0bc 5bab 893d 3a3e 0fbe 226f 5237
000003b0: 3bb5 d13e 8f71 94be 1933 613b 2cc0 3d3e
000003c0: 915a 53be 6ad0 c13c a76f 813d 789d 7d3c
000003d0: 4f7d 633e 3336 613e 5a26 97bd 738d fdbd
000003e0: 5486 3bbe 7ed8 6bba 4dd9 953b 6acd d3bc
000003f0: d411 cc3a 7d57 cc3c 8da7 363d 283a f23d
-0.1977655 0.043427423 -0.03455673 0.50974137 0.193525 -0.18158807 -0.30372742 -0.027628765
0.32940152 0.061073907 -0.11534063 0.0083087245 -0.09158146 0.09984183 -0.06498434 0.020518351
-0.1445435 -0.24599706 -0.1954451 -0.2728208 -0.055200193 -0.07374655 0.004689818 -0.10267619
-0.045919254 -0.083429776 -0.045773815 0.042387582 0.07434818 -0.039079823 0.004613324 -0.028663928
0.5681784 -0.016183095 -0.040253986 -0.084773585 0.005441434 -0.22745998 -0.28045404 0.010992814
-0.016629612 0.13123722 0.018499807 -0.002369605 -0.014006933 -0.014375727 0.010028269 -0.019503923
-0.010807923 0.17755505 0.04784125 0.057958595 0.07378067 0.0023694255 0.0064842864 -0.026396634
-0.014928295 0.009357725 0.02942618 0.06259743 0.016903235 0.15397626 -0.0031872615 -0.01396433
-0.02486943 1.0377318 0.023089932 0.006155135 0.008140327 0.030693598 -0.046844486 -0.0102227535
0.052983005 -0.00321673 0.022090156 0.0026238172 -0.002482111 0.001991232 0.0033809952 -0.006967844
-0.001370826 -0.0019587926 -0.006689285 -0.03194943 -0.01482347 -0.0013242052 0.0010857705 -0.00021667447
-0.00034344985 -0.0053758337 0.0028257414 -0.00044401878 -0.026786922 -0.03951149 -0.004198063 -0.006490011
-0.026397878 -0.037554156 1.6435654 -0.21828002 0.17490835 0.02107559 0.023510646 0.0053263884
0.19438443 0.15447003 -0.01494201 -0.04903846 -0.25136793 0.090333626 0.13142096 0.0040602423
0.103591464 0.011633118 -0.10371563 -0.035277303 -0.18326645 0.3148941 0.059697956 0.0015392022
0.020341475 -0.04591873 0.081411906 -0.090330884 0.03174232 0.024995476 0.050161667 -0.08828354
-0.005271841 -0.013845213 0.0450867 0.7224511 -0.13983996 -0.10611752 -0.05469049 0.18943393
-0.025867224 0.07095866 -0.7046823 0.08689183 0.0055305995 0.008929105 0.024973959 -0.07148529
0.020895263 -0.043928765 -0.0020392286 0.14302841 -0.21532175 0.32673597 0.54381365 -0.05741911
0.006429731 0.024563454 0.008087679 0.053575598 -0.01889018 0.09681351 0.07919164 -0.031289563
0.07313218 -0.0134687945 0.048052453 0.001501251 -0.42028186 0.058222875 0.056478303 0.22822315
-0.13213693 0.26460338 0.036943965 0.19550861 0.041733712 0.1788882 -0.18930608 0.065198116
0.0065733916 -0.062206473 -0.007221297 0.008657839 -0.23303787 0.05576774 -0.2037877 0.012743388
-0.02551828 0.00933803 0.020632856 -0.030781535 0.042532936 0.03647454 -0.1698809 0.04879363
0.007053351 0.16382957 0.037083533 -0.04786688 -0.0027817115 0.20432167 0.18599708 -0.05968813
0.06750378 -0.0562429 -0.13686617 0.16836698 -0.3266539 -0.017809153 0.048648804 -0.076153666
0.03752984 -0.060869012 0.039517548 -0.021989092 -0.064217 -0.05177103 0.017601877 -0.1693218
-0.18513663 -0.70001334 -0.021360757 0.033121105 0.0013634731 -0.0007286394 -0.030657172 0.089741886
0.033624183 -0.010358335 0.021414127 -0.031030823 0.01925129 -0.019046849 0.82224166 -0.08867288
-0.023494415 0.067221366 -0.13988581 1.25428505e-05 0.4095858 -0.28992888 0.0034362732 0.18530339
-0.20640017 0.02365895 0.06320124 0.015479438 0.2221577 0.21993332 -0.07380362 -0.12380495
-0.18312961 -0.00089967984 0.0045730234 -0.025854785 0.0015569278 0.024944061 0.044593383 0.11827499

fc1.bias f4 [400]
00000000: dd9c c93c 3956 2b3e 5a38 723d ef85 c93d
00000010: 2fdf 903d 1433 5abd 6e84 283d 01a0 f5bd
00000020: 4eab 233e d076 293c 3d51 0a3e f5d9 fabd
00000030: d60d 24be c1fa a83c ba73 b6bc 4b99 8fbd
00000040: 5cff ba3d 0baf e6bd 6925 1c3e 6265 2dbe
00000050: 71c2 103d 716a d0bd 73c6 1b3d c3ac 303e
00000060: 79d5 aabc f0ae 1c3d 8c4e 8cbd 18f3 b6bd
00000070: 8362 18be 59a4 cd3d 7a20 01bb 90ea 763d
00000080: ec1f 09be b673 14be 1e3d 22be 52be cebd
00000090: eb2c bebc 59fe d3bc 9ece 983d d08f abbd
000000a0: 6eb8 2d3e 3749 a2bd a871 27be 434f 073e
000000b0: f029 e6bd 1a9f 8a3c 26be 88bc 9a1d 14bd
000000c0: 1369 42b9 6940 2fbe 1122 203e 7586 e5bd
000000d0: af8d d93d 9d1c cfbd 1f71 2fbd 2e10 6cbb
000000e0: fe79 8dbd 5fc2 99bd ffd6 15be 7f27 f9bd
000000f0: f979 03bc e087 50bd 9e8b b8bc b1be 353d
00000100: 7acb aebc 2a8f 28be d01f 83bd 03a4 5a3d
00000110: d34c 803d cc84 ac3d 8756 173c ec95 f43d
00000120: 72ec f3bd a08c 15be 6650 3fbd a14f 953b
00000130: 27e8 013e 0ecd ccbd 9522 f9bd a856 c2bb
00000140: 7a51 383d a2a0 22be 4aa1 8bbd a7e6 0bbe
00000150: 1949 263d c8c8 6d3c 7c8b 1ebe 5054 edbd
00000160: 4580 033c a2fc 3cbd 979b 09be e609 56bd
00000170: 02eb 23be 0c6a a2bc 69e0 a6bc 0d87 113c
00000180: 73ef 713c be4a f8bc b675 0e3e fabc 80bd
00000190: 8da4 a13d 3fff 853d e73b b1bc 5fdd 00be
000001a0: 8ea2 16be 75f4 453d 04ff 593d 0e5e d83d
000001b0: 134b 9cbd 80bb 0f3e 571e 323e fdb8 e3bc
000001c0: 6109 8dbd 2383 60bd 6a42 1bbe f683 dc3d
000001d0: ef29 973c d245 a43d 1870 e53d 1968 94bd
000001e0: 3694 f73a e722 103e d7d1 09be c6a2 1c3e
000001f0: 6387 b93d 3875 5fbd a260 11be 046b bf3d
00000200: a000 aa3d acc3 a1bd baeb b03d ff4f 533d
00000210: 4ff8 2e3e 1cd9 b63d 51ac d63c c755 30be
00000220: b288 103e 2161 193e 419e 45bd 6199 5ebc
00000230: 420c 09bc d56c 1cbc 2a89 c43d 4341 9c3c
00000240: 92e6 1abe 61d7 5f3d 2d1c dbbd ad2c 4c3d
00000250: 3d09 9b3d b492 aabd d7f8 f13d 58ea 9e3b
00000260: 658d b3bd 1512 193e 48a6 e33d 314b 023e
00000270: ba08 f5bd e06b 07be 0d7e 1cbe 8629 e73d
00000280: 8753 d03d df95 d9bd 06b7 8b3d 71bd 013d
00000290: efbb 97bd 4272 c83b 5e63 d7bd 2482 51bd
000002a0: 1be1 8d3d e5ed c83c 51df 04be a1a2 333d
000002b0: 6ff0 16bd 73fe 06be 3429 25be 6e55 f13b
000002c0: 5296 02be 48aa dbbd eec8 2b3d 8dd5 323c
000002d0: 48aa 9ebd 999c dd3c ea00 b43d 3c27 88bd
000002e0: 5f41 7fbd dfdf fb3c bf58 2d3d d399 7d3d
000002f0: d7ed f33d 3643 41bc f68c 603d 9b14 cdbd
00000300: 0e22 bcbc d74f 043e 22d8 2cbe 196a eabd
00000310: 8ad4 1cbe e358 143e d9ff a0bc 6d36 233e
00000320: e36a c0bd fff1 41bd 575f e53d 0bdf 31be
00000330: 3d7d 2dbe 2f84 efbd 706a 423b e020 24be
00000340: 10c0 033d 3b0f 173e 1a05 14bd 5a2a febc
00000350: afb3 1cbe 8aca 16bd 8ffc 743c 12c2 393d
00000360: 5144 6bbd 673c dabd f2b4 babd 5486 f53d
00000370: 1674 c1bd 1874 de3a 5998 fbbc 5f54 92bd
00000380: 55f9 f7bb fd5d 063e ee4b 073e b0ef 14bd
00000390: 1527 0ebd 9452 c8bd 5d4a a1bd d80c f5bc
000003a0: b27a 043e 3236 cb3c ee25 18be 0ddf 35bd
000003b0: c500 1abe ee73 233e 5513 863c 51e9 34bd
000003c0: 01fb 8e3d 7a5e 26be 9fa0 6bbd c6dc 8b3c
000003d0: 2e1f 003e ea84 113e 3e1c c0bb 03b9 32be
000003e0: 6e7f 063d d065 c9bd 60af 203e 0d6a 41bd
000003f0: ee4c 3ebd ee45 d1bc 1cb2 253e eca9 9b3d
0.024610931 0.1673211 0.059135772 0.09839999 0.07073819 -0.05327137 0.04114192 -0.11993409
0.15983316 0.0103432685 0.13507552 -0.12248603 -0.16020903 0.020627381 -0.02227198 -0.0701166
0.09130737 -0.112638555 0.15248646 -0.16933206 0.035341684 -0.10176552 0.038031053 0.17253403
-0.020853745 0.03825277 -0.06850919 -0.08933085 -0.14881329 0.100411125 -0.0019703195 0.06028229
-0.13391083 -0.14497265 -0.15843627 -0.100948945 -0.023214778 -0.025878118 0.07461284 -0.083770394
0.16964886 -0.07924121 -0.1635195 0.1321383 -0.11238468 0.016921569 -0.016692232 -0.036161043
-0.00018540425 -0.17114414 0.15637995 -0.11207286 0.10622727 -0.101128794 -0.04283249 -0.0036020386
-0.06908034 -0.075077765 -0.14632796 -0.121657364 -0.008024686 -0.05091083 -0.022527512 0.04437131
-0.02133726 -0.16460863 -0.06402552 0.05337907 0.06264653 0.084237665 0.009236938 0.11942658
-0.11910333 -0.14604425 -0.046707533 0.0045566116 0.12686215 -0.100000486 -0.12164799 -0.0059307404
0.044999577 -0.15881589 -0.06817873 -0.13662206 0.040597055 0.014513202 -0.15482897 -0.11588347
0.008026187 -0.046139367 -0.13438259 -0.052255534 -0.16007617 -0.019825958 -0.020370679 0.008882296
0.014766562 -0.030309077 0.1391209 -0.062860444 0.07892714 0.06542825 -0.021635009 -0.12584446
-0.14710447 0.048328836 0.053221717 0.105648145 -0.07631507 0.1403637 0.17394386 -0.02779817
-0.068865545 -0.05481256 -0.15162054 0.10767357 0.018452613 0.0802113 0.11203021 -0.072464176
0.0018888775 0.14075814 -0.13458954 0.15296468 0.09059026 -0.054555148 -0.14197019 0.093465835
0.083009005 -0.078986496 0.08638711 0.051589962 0.1708691 0.08928129 0.026205214 -0.17220221
0.14114645 0.14978458 -0.048246626 -0.013586373 -0.008364739 -0.009547432 0.095964745 0.019074088
-0.15127018 0.05464876 -0.106987335 0.049847294 0.075701214 -0.08328763 0.118150406 0.0048497133
-0.08767203 0.14948304 0.111157 0.12723996 -0.11964555 -0.13224745 -0.1528246 0.11287217
0.101721816 -0.10624289 0.06822018 0.031674806 -0.07408892 0.006117136 -0.10517 -0.051149502
0.06927701 0.0245275 -0.12975813 0.043856267 -0.03685039 -0.13183002 -0.16128999 0.0073649203
-0.12752655 -0.10725838 0.04193967 0.010915172 -0.07747322 0.02705221 0.08789237 -0.06648108
-0.062318202 0.030746398 0.042320963 0.061914276 0.11910599 -0.0117958095 0.05482193 -0.10013696
-0.022965457 0.12921081 -0.16879323 -0.11446018 -0.15315452 0.14487033 -0.019653248 0.1593873
-0.09395387 -0.047349926 0.11199825 -0.1737024 -0.16942306 -0.11695134 0.0029665492 -0.16028166
0.032165587 0.14751904 -0.036137678 -0.031026054 -0.15302919 -0.03681425 0.014952793 0.045351095
-0.0574382 -0.10656052 -0.09116544 0.11988512 -0.0944597 0.0016971854 -0.030712293 -0.07144999
-0.0075675645 0.13121791 0.13212559 -0.036361396 -0.03470524 -0.097813755 -0.07875512 -0.029913351
0.1293743 0.024806116 -0.14858219 -0.04440217 -0.15039356 0.15962192 0.01636664 -0.04416782
0.06981469 -0.16246977 -0.057526227 0.017073046 0.12511894 0.14210859 -0.0058627417 -0.17453389
0.03283637 -0.09833872 0.156919 -0.04722028 -0.046460085 -0.02554604 0.16181225 0.076007694

bn1.weight f4 [400]
00000000: 66a0 9d3e d3ab 2d3f 43a4 493f b7f6 ea3e
00000010: c7f0 893e 6c1a ca3e b735 f03e 6634 8c3e
00000020: 1828 473f d6fb 0f3f d240 133f 75cb 9e3e
00000030: ac7d c63e c0ab e23e ac53 8c3e 0e49 903e
00000040: eb5c af3e 9cc7 953f b3ca a9b8 c217 5b3f
00000050: 2402 b43d 6491 7f3e 07c4 183f 2e79 063f
00000060: 8077 a53d 9dcf a53f 74c6 a73e 9c6e 083f
00000070: 2b67 803e b8be b53e f0c2 c93e ee6b c03a
00000080: f2d0 5b3e 08e1 2c3e e176 e73e 4638 103f
00000090: 6d11 8c3e 2978 263f 9021 103f 8cff 873e
000000a0: 910d e13e 3ddb c03e b7a8 713e 5084 b83e
000000b0: 7462 273f 902b 953e 8114 a73e cc6d 943e
000000c0: 9a55 843e 57d9 0d3f 20df 943e e7b4 9b3e
000000d0: df59 9a3e ca47 3b3f 9f6b 493f df9b 743f
000000e0: cfd7 803e 08c3 a13e 55e5 ef3e ed80 563f
000000f0: 2fd7 c63e 34ef 9d3e a33b 713f 5e7e 953e
00000100: cd85 fe3e 11e3 0b3f e910 873e f9e9 dc3e
00000110: 09ee af3e 758f a239 1ea6 093e 0e60 093f
00000120: c1ba 953e 0929 883e 4617 d03e aa8e 683f
00000130: 6f7a 0c3f 36d5 0e3f 674f 093f 41c6 7e3f
00000140: efb8 b83e 0005 c53e b4ee 1e3f e20c 763d
00000150: d4d3 0f3e 5b05 c13f 6a0c 073f 99a4 dd3e
00000160: 53a0 dc3e 2ebe 143f 5186 b03e 3d9b c93e
00000170: 8735 ae3e 9c9a dc3e 7275 143f 86ab e43e
00000180: df6b 893e c2cb 043f 808a b43e cfc0 ec3e
00000190: 205c 423e 9ef8 ad3e 6883 a93e a143 543f
000001a0: f69d 293f 20d2 c03e a7a3 153a 778b 3d3e
000001b0: e927 2f3f 9dd2 8b3e 1a05 d83e 1dd3 773e
000001c0: 8271 f33e 5f67 a43e 012b 2f3e 0852 af3f
000001d0: 2451 d83e 3b6f 463e 9871 0c3f 1f8f 9c3f
000001e0: d058 6b3e 64bc 093f fb47 f63e 618a 9e3e
000001f0: e397 893e 6430 9b3e ffe2 6e3f f116 0d3f
00000200: c5a5 723e a4d2 823e 9c2e ac3f d186 7e3e
00000210: 05fd 8a3f 9e0c e63e 3581 803f 7949 ad3e
00000220: 1729 2a3f 280f 763f 6283 8e3e c497 d33e
00000230: 5908 503f 905f 753e dd0f 723e 5846 a53f
00000240: d4a3 db3e a323 683e 6e9b cf3d fa7a 8c3e
00000250: 4223 ce3e e6cd 083f 5d82 963e 5a07 873e
00000260: 8078 833e b773 9d3e f652 d33e 7806 913e
00000270: 77b8 ac3e 0fa4 8d3e fadf c43e 5ba9 f23e
00000280: 8149 b33e cbcb a43e cc89 cf3e 8d15 963f
00000290: fb8e a23e ea6a 673e 04cb 963e 702a f23e
000002a0: 8aa4 1c3f 77c1 af3e 474c 9f3e 19ef f93e
000002b0: 53c4 573f afa6 ac3f a3ed 603f 31f3 d03e
000002c0: 8495 be3e fb52 283f 1767 b53e a86c f83e
000002d0: c4b0 1d3f d01b bd3e bb1e 063f 14d0 903e
000002e0: aa4a 663e 15d4 cb3e c826 8b3e 6e8e 0f3f
000002f0: 827b 043f d0d5 153f 1bd7 b43f 2ebd ee3e
00000300: 5138 4b3f d6ee c63e 8b8d b03e d405 9b3e
00000310: 4774 e93f 2d4b 1c3f 65aa 113f c307 b33e
00000320: 9e39 ba3e 50ef 903e e872 683e ffda 003f
00000330: a98e 133f 4aa3 2c3f 72a7 a23e 4bc5 7a3e
00000340: 837c 2d3e 33f1 0a3f d5d9 0e3f 040d 9e3e
00000350: de58 3f3e 13f5 323e 52a3 803e a14a c43f
00000360: d4a7 473f d32c bb3e e04d 193f 696f 9c3e
00000370: 9bdb db3e 077f c23f d313 983e b550 2c3f
00000380: caf3 9e3e a306 943e 3060 033d a3b7 a33a
00000390: 91bc e23e f820 a83e d5b3 d63e f6ec 763e
000003a0: c094 943e 8783 a43c f105 573d 726f 7b3f
000003b0: bb74 9d3e 2c34 b23e a3ac d53e d5a7 e73e
000003c0: 2acc 403e 2775 e03e aa05 893e e6b8 173e
000003d0: 044e b63e d927 bf3e 0251 233f 6edd 213f
000003e0: 0f74 0c3f c51c cc3e 4499 9d3e e920 093f
000003f0: 41f5 d13d a0fc 023f ae7e 353f 721f ce3d
0.30786437 0.6784031 0.7876627 0.45891353 0.2694151 0.39473283 0.4691598 0.27383727
0.77795553 0.56243646 0.5752078 0.310146 0.38767755 0.4427166 0.27407587 0.28180736
0.34250578 1.1701541 -8.096304e-05 0.85583127 0.08789471 0.24957806 0.59674114 0.52528656
0.080794334 1.2953984 0.32768595 0.53293777 0.2507871 0.3549707 0.39406538 0.0014680603
0.21466425 0.16882718 0.45207885 0.56335866 0.27357045 0.650271 0.5630121 0.26562154
0.43955663 0.37667266 0.23599516 0.36038446 0.653846 0.29134798 0.3263283 0.28990018
0.2584656 0.5540976 0.2907648 0.30411455 0.3014669 0.73156416 0.7867984 0.9555034
0.2516465 0.3159411 0.46854654 0.83790475 0.38836047 0.3084656 0.94231623 0.29197973
0.49711457 0.5464335 0.2638009 0.43147257 0.34361294 0.00031005932 0.13442275 0.5366219
0.29244044 0.26593807 0.40642756 0.9084269 0.5487432 0.55794084 0.53636783 0.9952126
0.36078593 0.38480377 0.6208298 0.06007088 0.1404565 1.5079759 0.5275332 0.4328964
0.43091068 0.5810269 0.34477475 0.3937625 0.34025213 0.43086708 0.5799171 0.44662112
0.26840112 0.5187341 0.35261917 0.4624085 0.18980455 0.33978742 0.33108068 0.82915694
0.66256654 0.37660313 0.0005708285 0.18510233 0.68420273 0.27309123 0.42191392 0.24201627
0.47547537 0.32110116 0.17106248 1.3696909 0.42249405 0.19378369 0.5486083 1.2231177
0.22983098 0.53803086 0.48101792 0.3096495 0.26873693 0.30310357 0.9331512 0.5511313
0.23696049 0.2555133 1.3451724 0.24856116 1.0858465 0.449315 1.0039431 0.33845118
0.6646895 0.96116877 0.27834612 0.41326725 0.8126274 0.23962235 0.23638864 1.2912092
0.42898428 0.22669844 0.10137068 0.27437574 0.40261275 0.53439176 0.29396334 0.26372796
0.25677872 0.30752346 0.41274232 0.28325248 0.33734486 0.2766423 0.3845213 0.47394833
0.35017017 0.32186732 0.40534818 1.1725327 0.3174971 0.22599378 0.29451764 0.47298002
0.61188567 0.3432729 0.31112882 0.4881523 0.8428394 1.3488368 0.87862605 0.4081054
0.37223446 0.6575162 0.35430214 0.48520398 0.6159785 0.36935282 0.5239064 0.2828375
0.2248942 0.39810243 0.27178025 0.56076705 0.5175096 0.58529377 1.4128145 0.46628708
0.79382807 0.38854092 0.3448299 0.30277884 1.823861 0.6105221 0.56900626 0.3496686
0.36372083 0.2830758 0.22700083 0.5033416 0.5763956 0.6743666 0.31768376 0.24489324
0.16942029 0.5427429 0.55801135 0.30869305 0.18686244 0.17476301 0.25124604 1.5335275
0.7799046 0.36557636 0.5988445 0.3055375 0.42940983 1.5195016 0.29702625 0.6731065
0.3104537 0.28911313 0.032074153 0.0012490641 0.4428449 0.32837653 0.41934076 0.24113831
0.29019737 0.020082248 0.0524959 0.9821693 0.3075312 0.3480543 0.41733274 0.45245233
0.18827882 0.4383938 0.26762134 0.14816627 0.35606396 0.3733509 0.63795483 0.632285
0.5486459 0.398657 0.30780995 0.5356584 0.102518566 0.51166725 0.7089642 0.100645915

bn1.bias f4 [400]
00000000: 4fe8 b7bd 9ee0 953e 0af8 a9be 6fe9 62be
00000010: 552c 10be 00c0 79be e85c debe a254 6fbe
00000020: 4497 48bd 8542 dfbe 75cc 97be 4b19 a0be
00000030: df3e 64be c547 06be 5108 74be 5ab1 39be
00000040: ebc8 95be f585 97bd 8614 c13e 9461 0c3e
00000050: 206b ae3e bce9 d9bd 264c 4dbe f642 01bf
00000060: 7816 523d b849 d7bd fcc9 a4be 3136 cdbe
00000070: db6d 7ebe f5d7 37be 7e8b a9be af09 68bc
00000080: 12c0 52be 1913 a8bd 1ab6 02bf f4a5 85be
00000090: fe72 c43d 1145 783d b615 b1be b277 8dbe
000000a0: 1a66 d9bd 4b3e 2fbe 020d 12be 2648 51be
000000b0: 914a 913e 250e 45be 61c6 80be 046e 7fbe
000000c0: 2983 36be c829 24be 38ae 9abe 543d c6be
000000d0: b152 a7be ac7d c9bd 177f 0dbe 03ce d6be
000000e0: 8fdb 00be c262 1bbd 94db 9ebd b98a bfbd
000000f0: a686 a0be d4de 91bd 1dd1 4fbd 7684 88be
00000100: 19fa 64be e472 9dbe e91f 35be 9922 acbe
00000110: 0351 77be 42e9 42bb 614e 863d 49ef 963d
00000120: 03f4 42be 6637 65be d37a 9fbe 5f20 13be
00000130: 48b7 61be e134 ccbe 763a e73d 1d08 b3be
00000140: 351c 55be fc6d 8ebe d05e 7fbe 1cc5 cb3e
00000150: 1c33 093d 4b0a 89be dc9a ddbe b55b aebe
00000160: 75ed afbe e221 1f3e ec91 7abe 4fb6 55bc
00000170: 9711 81be 1d83 4ebe 9cbd b3be 7e64 d3be
00000180: cfbb c1be 9e64 bb3e 46ec a1be 84b4 e6be
00000190: b21c b0bd 3525 7bbe d5fc a8be f0f4 adbd
000001a0: 2411 90be 8c1c 93be bacf 9bbb b200 113e
000001b0: ee09 bfbe 0481 4ebe 9195 9ebe 7547 25be
000001c0: 37b3 b7be e1d9 85be 911f 523e 7e3a 05bf
000001d0: 2499 57be 941a 64be 88ce 8abe d64a babe
000001e0: 7069 28be 30ab b0be 17a7 cebe a857 a3be
000001f0: 64de 87be 1d2e a53e 3c64 acbd 8216 f2be
00000200: 42e0 6dbe bc73 2dbe da35 67be ef17 3ebe
00000210: c0ae 48be 4494 d0be e75c b8be f352 19be
00000220: aec8 12bf 156d 98bc 16e8 8abe 7086 bbbe
00000230: 954b 42be fd99 14be c7f5 75be 0c3d 1fbe
00000240: 1f9d bdbe 793e 34be 06c3 833e 5205 8abd
00000250: 3a44 7fbe 22d5 93be fb16 81be d747 2e3e
00000260: 1eb7 65be 639d 8cbe 19be e8be 2fc7 93be
00000270: 21c4 9ebe c292 9ebe 3cc9 5abe e388 c7be
00000280: 7a0c c5be c790 b0be 5f5a d9be 8502 943d
00000290: 7c6f 13be d863 883e 0fe4 8cbe 8876 55be
000002a0: 2f7a a6be 641f 3ebe 82e5 60be 8ac0 c3be
000002b0: bc21 953e 06a8 f2bc 5d05 2abe e9a9 dfbe
000002c0: 5427 84be 0731 b7bd 140e ecbd 8ae3 c8be
000002d0: c216 86be 6726 04bd 079a ccbe 7616 6bbe
000002e0: 2102 0ebe 72d2 0ebe c0c1 94be 0c97 c2bd
000002f0: 5757 98be 4801 613e c83f a1bd f5cc c8be
00000300: 5e1f 88be c1c9 acbe a7d4 abbe 3656 e1bd
00000310: 99b0 18be a75f e83c a4b8 87be eb8d 8dbe
00000320: d74a ecbe b1bb 5ebe cf1b 13be 8d70 40be
00000330: 841c 463e 8422 87be 2211 3bbe 3f62 2e3d
00000340: cee5 74bd c676 5ebe 816e 6dbe cbe7 5bbe
00000350: 3eb3 59be f05e c5bd 4cbd ec3d 7ca1 a33c
00000360: f1e5 bd3b d8cf 9fbe 5da8 a1be da67 0fbe
00000370: 3f27 91be 5c9e 87be 66d7 4bbc c4cb b0be
00000380: 7e61 45be c02b 72be c71a dd3e d366 24bc
00000390: 7479 9abe 104e 43be 81e7 ab3e 2aed b9bd
000003a0: a0e3 5fbe 93a0 fb3e 7638 c63e 678a 6cbe
000003b0: 3d7a 97be 8572 9fbe e18b 103e e8ec f4be
000003c0: 816c 9dbd 8f33 c1be 90b9 1bbe 3643 c53d
000003d0: d85f 2dbe 4b1b 7ebe 097d 223d edac 1bbe
000003e0: b24f 613d 1cfd 2dbf 5fb8 42be 8f97 e0be
000003f0: 092e d43e b636 d6be 0495 d7bd a128 083e
-0.08979856 0.29272932 -0.3319705 -0.2215936 -0.14079411 -0.24389648 -0.43430257 -0.23372129
-0.048972383 -0.43605438 -0.29648176 -0.31269297 -0.22289608 -0.13113315 -0.23831297 -0.1813406
-0.2925485 -0.07398597 0.3771097 0.13709098 0.34066105 -0.106402844 -0.2004858 -0.504928
0.05129096 -0.105121076 -0.32185352 -0.40080407 -0.24846594 -0.17953475 -0.33114237 -0.014162465
-0.20581082 -0.082067676 -0.51059115 -0.26103175 0.095922455 0.06061274 -0.34586877 -0.27630383
-0.106151775 -0.17113607 -0.14262775 -0.20437679 0.28377202 -0.19243677 -0.2515135 -0.24944311
-0.17823471 -0.16031563 -0.30211043 -0.38718665 -0.32680276 -0.09838423 -0.13818012 -0.4195405
-0.12583755 -0.03793598 -0.07756725 -0.09352631 -0.3135273 -0.07122579 -0.050736535 -0.2666356
-0.2236103 -0.30751717 -0.17687954 -0.33620146 -0.24151997 -0.0029741083 0.06557918 0.07369859
-0.19038396 -0.22384414 -0.31148395 -0.14367817 -0.22042572 -0.39884093 0.112904474 -0.34967127
-0.20811541 -0.27818286 -0.24938512 0.3979882 0.033496007 -0.26765665 -0.4328221 -0.34054342
-0.34360853 0.15540269 -0.24469727 -0.013043954 -0.25208732 -0.20167203 -0.35105598 -0.41287607
-0.378386 0.36600202 -0.31625575 -0.45059597 -0.08599223 -0.24525912 -0.33005396 -0.08493984
-0.28138077 -0.28732717 -0.0047549875 0.14160421 -0.37312263 -0.20166403 -0.30973485 -0.1614054
-0.35878918 -0.2614279 0.20519854 -0.52042377 -0.21054512 -0.22275764 -0.27110696 -0.3638522
-0.16446471 -0.34505606 -0.40361854 -0.31902814 -0.26536858 0.32261744 -0.08417556 -0.47282797
-0.23230079 -0.1693868 -0.22579136 -0.18563817 -0.19597912 -0.40738118 -0.3600838 -0.14973049
-0.5733746 -0.018606702 -0.27130193 -0.36626005 -0.18974145 -0.14511867 -0.24019538 -0.15550631
-0.37033936 -0.17601956 0.2573473 -0.06739296 -0.2492837 -0.28873545 -0.25212845 0.17019592
-0.22433135 -0.27463827 -0.45457533 -0.28862903 -0.3100901 -0.30971342 -0.21365827 -0.38971624
-0.3848608 -0.34485456 -0.4245176 0.07227043 -0.14397997 0.26638675 -0.27517745 -0.20845997
-0.32515094 -0.18566662 -0.2196255 -0.38232833 0.291273 -0.029621135 -0.16603608 -0.4368432
-0.25811255 -0.08944898 -0.11526123 -0.392361 -0.26189238 -0.032263186 -0.39961264 -0.22957787
-0.13868 -0.13947466 -0.2905407 -0.09501466 -0.29754135 0.21973145 -0.078734934 -0.3921887
-0.2658643 -0.33747676 -0.33560678 -0.110027716 -0.14911117 0.028365923 -0.26508057 -0.27647337
-0.46150848 -0.21751286 -0.14366077 -0.18792935 0.19346815 -0.2639352 -0.18268254 0.042574164
-0.05978947 -0.21724996 -0.23186685 -0.21475141 -0.21259782 -0.096372485 0.11559543 0.019974463
0.0057952334 -0.3121326 -0.31573763 -0.1400446 -0.28350255 -0.26488006 -0.012441492 -0.3453046
-0.19275472 -0.23649502 0.43184492 -0.010034281 -0.30170786 -0.19072747 0.3357506 -0.090784386
-0.21864176 0.49145946 0.3871495 -0.23099671 -0.29585448 -0.3114206 0.1411586 -0.47836995
-0.07686711 -0.3773465 -0.15207505 0.0963196 -0.16931093 -0.24815099 0.039670024 -0.15202685
0.055007644 -0.6796434 -0.19015644 -0.4386563 0.41441372 -0.41838616 -0.10526469 0.13296749

bn1.running_mean f4 [400]
00000000: d882 9b3e 4fad 7b3e a1e2 e83d 1ca7 f2be
00000010: a1e1 c83e 520f a8be 885e f93e 9e6e 3cbf
00000020: 11c0 b0bd fbbc 033f 7afd 913e e42d 68bf
00000030: ce23 033f 5318 853e c042 383e d875 d6bd
00000040: 1c94 2c3e 5249 06be 607e 1f3f 57b9 f8bd
00000050: 8396 173d 095f 9dbe 9012 263d 2481 e73e
00000060: bf22 2b3e d509 843d f4a5 3dbf 4b13 9dbe
00000070: 34d9 0dbe 1b5e 513e c4f1 d8be ade0 fabc
00000080: 6cf8 c4bf 094b eabe e823 3dbe 46a7 babb
00000090: 53e9 a93d 81cc b1bd c1a8 c6be aed8 12bf
000000a0: 6f84 5fbe 1acf 34bf afe0 6ebf 0bc6 b3be
000000b0: ba17 22be 2cdd 07bf 4dd7 53be ecdf 6abf
000000c0: 362c 393d 87dd 313e 3c25 713f a128 8abe
000000d0: 63c5 68be 3d8d 543b 92de 85bd a687 14bd
000000e0: 8ab8 8b3d 316a 023f 84ef 04bf 299f 43be
000000f0: 83ca b2bd 58b6 543e 1949 443e 3d66 ebbe
00000100: 0c57 6e3d da91 7fbe 88b7 c7bc 7d45 b93e
00000110: 886b 3ebe e602 94bd e37e 553f d62f 0bbe
00000120: 2686 39bd f14c 3bbe 8154 ca3e 1d64 43bd
00000130: 3d43 2e3e 358e d3bd 85b5 e03d c943 bcbc
00000140: 92f1 293e 34f3 b9be 0737 08be 0247 3abd
00000150: 9e4a 0a3f 41a5 3b3d c71d 3cbe fc31 463f
00000160: 2546 babe af9f b0be 9f34 903e 8f95 f0bc
00000170: 84aa 80bf ee0c 2b3d d9d7 64bd ba35 813e
00000180: 83f3 093f be88 453e 4699 993e 14ce 23bf
00000190: 9224 9abd 67df 953e ef92 a63d 0f6c 5cbe
000001a0: d485 84be 614d 26bf 7726 113d b485 6a3e
000001b0: af62 7fb8 cf77 b7bb f892 ba3d fd79 d5bd
000001c0: 25c5 3cbe 6362 ddbe ac0e 5ebe fb07 e73d
000001d0: 8388 63bf e58c ecbd 2e2d 26bd 79c0 f5bc
000001e0: ae31 0e3e 6dc7 2ebd d9ff 6dbf cc64 9abd
000001f0: dcf7 d2be e401 213f 4ede f2bd 76ca a83e
00000200: 5519 67bd 5924 97be d467 853d 89d6 413f
00000210: 2887 323e ce37 eebd ed50 43be 7913 f3bd
00000220: 81fe 813d 4999 b63e 8491 0cbf 061e 763f
00000230: aa44 88be c11c d1bf 0b56 10bf 744e 943d
00000240: f311 49bf 3b52 08bf 67f5 a2be 3ded 7fbc
00000250: a0f5 5f3e 6e23 b33d 36a4 683d 0a2e 593d
00000260: 909e 523e 2060 e03e c608 92be cd99 2d3e
00000270: 909c 283e b240 623f 1f58 21be 1905 9e3d
00000280: 77e6 0c3e 8081 1cbf 844a 96be bf63 f23d
00000290: 129e d93c d911 bd3e c2dd 50bf 9b7d 85bd
000002a0: 8408 08be 2090 643d fd64 95bd b6a6 0d3f
000002b0: 450d f43d 7591 23be 9468 dcbd afad 143d
000002c0: c7e3 debe 3fc0 aa3c 6b4f 183e 64e9 e1be
000002d0: f605 49be 39af 823f b643 953d bd6d b2be
000002e0: 9555 203e 12e2 6d3d de6a 2ebe f44b 203e
000002f0: c82a 163e 2473 85be 7169 b23d 26e1 fcbe
00000300: d508 1e3c d135 c3bd cb0c 3bbf 6822 8abe
00000310: 83c5 33be 566d 5c3d 0019 02be d09c 80be
00000320: 7f9d 85be 23b9 673e b74d cb3d 28c6 8a3e
00000330: 078a e7bc 4df5 d1be 5f70 e03e 0372 08be
00000340: 3372 d13e 34a7 7c3f a849 18bd 1bc3 20be
00000350: 6aaa c9be ff25 09bf d3d3 763e 0151 a93d
00000360: 93ad 5cbe daf7 623e 4595 5fbf e281 033e
00000370: 060c 3e3f 8956 6d3d 7e35 a5be a8ab f5bd
00000380: 222b 223e 7a66 2ebd ad47 d53e 9855 eebd
00000390: b121 c83d e2ca bcbe f6f6 e63e f643 04bd
000003a0: da20 2dbe 27dd d43e 11f3 093f 3f19 d93c
000003b0: 5860 76be d44e 3a3f 0d5a 4ebe e2fd bd3e
000003c0: 2cb2 903d 3d9b 3dbf 43e8 013f 6e31 1a3e
000003d0: 42bc 153e fd46 633e 319a 393e 6b35 ba3c
000003e0: d936 203f ebb5 eebe 4837 27bb a39c 9dbe
000003f0: 0ef4 04be 9cf7 1dbe 0753 bfbb ca95 63bf
0.30373263 0.2457783 0.11371351 -0.4739312 0.3923464 -0.32824188 0.48704934 -0.7360629
-0.08630384 0.51460236 0.285137 -0.90695024 0.5122651 0.2599512 0.17994213 -0.10471696
0.16853374 -0.13113907 0.6230221 -0.12144726 0.037008774 -0.3073657 0.040545046 0.45215714
0.16712473 0.06447188 -0.7408135 -0.30678782 -0.13852388 0.20446055 -0.42371953 -0.030624712
-1.5388312 -0.45760372 -0.18470728 -0.00569621 0.08296456 -0.08681584 -0.38800624 -0.57361877
-0.21827863 -0.7062851 -0.9331159 -0.35112032 -0.15829363 -0.53071856 -0.206876 -0.9174793
0.04520818 0.17369662 0.9419744 -0.26984122 -0.22731547 0.0032432817 -0.065365925 -0.036262177
0.068223074 0.50943285 -0.5192797 -0.19103684 -0.08730032 0.20772684 0.1916851 -0.4597644
0.058188483 -0.24957982 -0.024379507 0.36185828 -0.18595707 -0.07227115 0.8339674 -0.13592467
-0.04529395 -0.1829107 0.39517596 -0.047702897 0.17017837 -0.10329858 0.10972122 -0.022981541
0.16596058 -0.36318362 -0.13302241 -0.045477875 0.54020107 0.045811895 -0.18370734 0.7742002
-0.3638164 -0.3449683 0.28165147 -0.02936819 -1.0052037 0.041760378 -0.05586991 0.25236303
0.53887194 0.19290444 0.2999975 -0.63986325 -0.075265065 0.29272005 0.08133494 -0.21525596
-0.25883353 -0.6496182 0.035437074 0.22902566 -6.0888644e-05 -0.005598999 0.09110063 -0.10423658
-0.1843458 -0.43239126 -0.21685284 0.11280819 -0.88880175 -0.11550311 -0.04057043 -0.029999005
0.13886139 -0.042670656 -0.9296852 -0.07538757 -0.41204727 0.6289351 -0.118588075 0.32966965
-0.056420643 -0.2951992 0.06513944 0.7571798 0.1743437 -0.11631738 -0.1907384 -0.118689485
0.06347371 0.35663822 -0.5490954 0.9613956 -0.26614887 -1.63369 -0.5638129 0.07241526
-0.78543013 -0.53250474 -0.31827852 -0.015620527 0.21871042 0.08746992 0.05679723 0.053022422
0.205683 0.43823338 -0.2852232 0.16953202 0.16465974 0.8837997 -0.15756272 0.07715816
0.1375979 -0.611351 -0.29353726 0.11835431 0.026564632 0.3692768 -0.81588376 -0.06518098
-0.13284498 0.05580151 -0.072946526 0.55332506 0.119165935 -0.15973456 -0.10762134 0.03629845
-0.43533155 0.020843623 0.14874046 -0.44123375 -0.1963118 1.0209724 0.072883055 -0.3484935
0.15657647 0.058076926 -0.17032954 0.15653974 0.14664757 -0.26064408 0.087115176 -0.49390525
0.00964566 -0.09531749 -0.73066396 -0.26979375 -0.17555813 0.05381521 -0.12704849 -0.25119638
-0.26096722 0.22629218 0.09926932 0.27104306 -0.028264059 -0.41007462 0.43835732 -0.13324742
0.4090744 0.9869263 -0.03717962 -0.15699427 -0.39387828 -0.535736 0.24104242 0.082674034
-0.21550588 0.2216486 -0.8733714 0.12842515 0.74237096 0.057943854 -0.32267374 -0.119956315
0.15836766 -0.042578198 0.41656247 -0.116374195 0.09772051 -0.36873537 0.4511029 -0.032291375
-0.16907063 0.41574976 0.53886515 0.026501296 -0.2406019 0.7277653 -0.20151539 0.3710776
0.070652336 -0.74065 0.5074503 0.15057918 0.14622596 0.22195049 0.18125226 0.02273055
0.6258369 -0.46623167 -0.0025515128 -0.30783567 -0.12983724 -0.15426487 -0.005838755 -0.88900435

bn1.running_var f4 [400]
00000000: b47c 653f 8136 923f 0c6b 6c3f eeac a53f
00000010: 82b9 973f 8a3c 563f 2d4f 543f a264 ab3f
00000020: 4882 be3f bb98 e63f 8e8e a63f d6cf 9840
00000030: 2054 9d3f f6f2 433f 1811 3340 952d 5d3f
00000040: 0bf9 2040 ae64 643f 80f4 1040 c712 e03f
00000050: e95d ad40 d25a 5b3f 8a02 8e3f fd96 0d3f
00000060: 7dcc 6b3f 65e3 a63f 89a2 373f f549 cb3f
00000070: 21d6 133f e7d7 b03f 19e7 313f 7e4e f33d
00000080: 099f 713f 6cc2 bb3f c876 333f a257 3a3f
00000090: 4480 413f 7932 df3f 33fd a53e 4900 f53f
000000a0: 419b 513f 68f0 bb3e 4276 f63f b827 663f
000000b0: 9f66 4840 e077 fe3e 8044 a53e 2970 ad3f
000000c0: ffae 823f b29a 563f 890c c53f 4045 3d3f
000000d0: 8f77 a73f d4e2 4c3f 08c8 973f d1c8 6a3f
000000e0: 30c0 233f c899 0940 c267 1040 d5fd 5d3f
000000f0: ba0e 0a40 a75b c63f 8c9b 9c3f 9030 9a3f
00000100: 68dc 3e3f 37a1 0740 3cce d63f 9469 3740
00000110: e013 4d3f 4f2a a33d 524d 5c3f dbd9 1e40
00000120: 4db9 db3e e014 e13f 6765 b43f bed5 4d3f
00000130: 7d21 133f 9a75 dc3f e8c5 ab40 f5fc 5a3f
00000140: 9c04 493f f649 6540 3ce3 113f 8dd1 0b41
00000150: 5361 ab3f 5a2a ea3f 7236 d03e f1ce d33f
00000160: f1e0 0a3f 8339 3241 43fd 6f3f 2682 5e3f
00000170: d6cb 2c3f 1b41 d73e 8c0d 493f 9519 6c3f
00000180: b2d5 713f f9de 4140 e49b 773f 78ba 793f
00000190: a2d4 4c3f dc88 f83e b0f4 943f 5a2e 373f
000001a0: caf1 473f b4b9 6e3f 400d 093e 4259 fb3f
000001b0: 6295 093f 5537 2a40 fa6b 4940 b82a 813f
000001c0: 9580 133f 7a18 3c3f 816f d13f f91f cc3f
000001d0: 08ad 9e3f b450 503f daa6 eb3f 4b16 c93f
000001e0: 65eb 753e 5046 e53f 3f9a 6f3f fd99 a33f
000001f0: 3912 8a3f 289c 3c40 832c b73f 6549 8f3f
00000200: 0d11 5e3f ae4e 9c3f f21f 0f40 1f3b 433f
00000210: 69ba 5b3f 5359 553f e590 533f 8d57 863f
00000220: 180c 213f 7b39 3e3f 3f11 413f 91e8 1c40
00000230: 3b37 683f 710b 8d3f 2301 873e 2630 7e3f
00000240: 185b 193f 9b8c cb3e 9b81 6f40 9fb0 503f
00000250: c8f7 2f40 2b27 f93f 4588 dd3f d1b2 3f40
00000260: 4214 1a3f 19ae 2540 2985 5b40 c8cd ad3f
00000270: 31a8 443f c634 0340 a2d0 b43f 1b99 a140
00000280: d154 203f d5bd a23f ed84 703f 0386 f43f
00000290: 2bd7 5640 90b9 6f40 887c 0e3f 2fbb 6f3f
000002a0: 881b 3e3f 427c 383f db85 0f3f 836d 993f
000002b0: 968e 0340 d6a6 1a40 ccb2 6e3f cd28 7c40
000002c0: 004d 393f 74f5 413f 5e54 343f d8da 863f
000002d0: 5047 2d3f ab32 0b40 a916 bf3f 96c0 643f
000002e0: 13f0 843e 13c6 b03e 0f48 323f cf3f 3a3f
000002f0: 493a 663f fd58 b640 b2cb 1840 8031 ba3f
00000300: de16 3d3f 535f 5b3f 0293 c53f 5eff a73f
00000310: bd22 0840 55a9 6f3f 7ea5 5140 f3b6 2a40
00000320: 9d64 713f 21c5 0240 c902 8d40 e206 af3e
00000330: e591 8240 3e8d 0f3f 0f76 0640 3dc3 d03f
00000340: 0c3c 383f 2481 983f fcad 3c3f f9f2 873f
00000350: b8ca 243f 05d6 ae3f 9482 1a40 ac73 2140
00000360: 8d5e 1f40 2680 2440 abae dc3f e22c e73f
00000370: f723 8a3f 7ed1 ed3f bb6a c33f 7c9e 8e3e
00000380: ab02 2940 6a3b 0640 7f82 0441 9881 333e
00000390: f60e 9e3e 1f9b 023f 2a6b 8c3f 3411 113f
000003a0: bedf ee3f c259 3041 682e a840 c2d0 8e3f
000003b0: 64bd 1140 c742 af3f 4e46 6c40 45f0 863f
000003c0: 943e 523f ca92 5f3f f4f2 dc3f 5bf2 193f
000003d0: 6c8a 4f3f 4a61 ca3f 4430 9340 c80b 0c3f
000003e0: a166 6840 f9b5 ee3e 690f 9e40 40a7 9e3f
000003f0: c5e3 a840 1148 5440 9ad0 763f a63a 4b3f
0.89643407 1.1422883 0.9235084 1.2943399 1.1853487 0.83686125 0.8293331 1.3390086
1.4883509 1.801536 1.3012254 4.7753706 1.2291298 0.76542604 2.7979183 0.8639768
2.5152004 0.89216125 2.264923 1.750573 5.4177136 0.85685456 1.1094525 0.55308515
0.921089 1.3038145 0.71732384 1.5881945 0.5774861 1.3815888 0.6949325 0.118802056
0.94383293 1.4668708 0.7010312 0.7278997 0.7558634 1.7437278 0.32419738 1.9140712
0.81877524 0.36706853 1.925484 0.89904356 3.1312635 0.49700832 0.32278824 1.3549854
1.0209655 0.83829796 1.539445 0.7393379 1.3083361 0.8003361 1.185792 0.9171267
0.6396513 2.150011 2.2563329 0.8671544 2.1571488 1.549672 1.2234969 1.204607
0.74555063 2.1192148 1.6781688 2.865819 0.8010845 0.07967054 0.8605548 2.4820468
0.4291481 1.7584496 1.4093446 0.8040427 0.57472974 1.7223389 5.3679085 0.8554223
0.7852266 3.5826392 0.5698736 8.73866 1.3389076 1.8294175 0.40666538 1.6547529
0.54249483 11.139041 0.9374582 0.8691734 0.6749853 0.4204186 0.78536296 0.92226535
0.944667 3.0292342 0.96722245 0.97550154 0.8001195 0.48541915 1.1637173 0.715551
0.78103316 0.9325211 0.1338396 1.9636614 0.53743565 2.6596272 3.1472154 1.0091162
0.57618076 0.7347485 1.6362153 1.5947257 1.2396555 0.81373143 1.8410294 1.5709928
0.24015577 1.7912083 0.93594736 1.2781368 1.0786811 2.947031 1.4310459 1.1194273
0.8674477 1.2211511 2.2363248 0.76262087 0.85831314 0.8333942 0.82642967 1.0495468
0.6290908 0.7430646 0.7541694 2.4516947 0.90709275 1.1019117 0.26368055 0.9929222
0.59904623 0.3975571 3.7422855 0.815195 2.7494984 1.9465078 1.7307211 2.995289
0.6018716 2.588751 3.4300025 1.3578424 0.7681914 2.050096 1.412617 5.0499396
0.6262942 1.2714182 0.9395283 1.9103397 3.3568828 3.7457008 0.5565877 0.93644994
0.7426076 0.720646 0.5606362 1.1986545 2.0555778 2.4164329 0.9324157 3.9399903
0.7238312 0.75765157 0.70441234 1.0535536 0.6768694 2.1749675 1.492879 0.8935636
0.25964412 0.3452612 0.696412 0.72753614 0.89932686 5.698363 2.3874326 1.4546356
0.7386302 0.8569233 1.5435488 1.3124807 2.1271203 0.93617755 3.2757258 2.6674163
0.9429415 2.0432818 4.40659 0.3418494 4.0803094 0.56074893 2.1009557 1.6309582
0.71966624 1.191441 0.7370298 1.0621024 0.64371824 1.3659064 2.4142199 2.522685
2.490146 2.5703216 1.7240804 1.8060572 1.0792226 1.8579557 1.5266947 0.2785529
2.6407878 2.0973763 8.281859 0.17529905 0.3087079 0.51017946 1.0970204 0.56666875
1.8662031 11.021914 5.255665 1.1157458 2.2771845 1.3692254 3.691791 1.0542074
0.82126737 0.8733336 1.7261643 0.6013543 0.8107059 1.581094 4.599642 0.54705477
3.631264 0.4662321 4.939381 1.2394791 5.277804 3.3168986 0.9641205 0.79386365

fc2.weight f4 [300, 404]
00000000: 2764 83be 5c2f 2cbe e27c e7bd bbef 20bf
00000010: 5c46 e4bd cf01 963e 992d 71be b91f 4abe
00000020: 1e8c 7fbd 6860 f33d b01d 643d eb40 523d
00000030: 20b7 78be 771c cabe be12 f0bd 48e2 e0be
00000040: ac17 ccbe 8082 79bd fd8c 143c f70d 5abd
00000050: 25e0 f9bd 8bdf 883d 96fc 96bd 4a81 82be
00000060: f4ba c8bd 711b b1be fa2c dcbd f4e7 7b3e
00000070: db5f 0dbd 0c28 943d 2402 97bc 6434 e6bc
00000080: 0b0a 11be 9018 78be bbbd 9ebe df63 23be
00000090: bbad d3bc b9db 83bd 456d 07be 2164 b93c
000000a0: b112 17be 50cd 16be e585 413c bbfe 763d
000000b0: ab12 18bd 0c23 6abc b4bc ebbd 2fc4 9f3d
000000c0: 9213 ecbd fc67 063e b2cb 0bbf 3ba7 8d3e
000000d0: e851 05be 7619 d6bd 7dea 833e a0df 2cbe
000000e0: 615a f6bd 035d 0d3d 8317 ad3d 9b38 383d
000000f0: 8bd8 ecbb 6d2f bcbd ad77 4fbc 44a6 75be
00000100: f819 1b3e 8195 ce3d 7ef2 01bd 3be8 7dbd
00000110: 8a38 9abe 5cd8 97bb 16b4 0abe f9e2 70ba
00000120: eb09 febd e886 44bd 2d73 cbbe e6c3 debd
00000130: 183c 35bd 8309 75be a28e f2bb 7d83 843d
00000140: a372 64be 1842 283d ddd5 68be f4c3 7ebd
00000150: d8ad c83d ed0e 75be 1121 7f3e 5021 86be
00000160: abb0 d9bd a723 4ebc 0f25 eabc ffab 3bbd
00000170: dbec 99bd e4ee 02bd 15bd a4be 7089 fd3d
00000180: c25b 17bd d397 013d e377 30bd 90ea 313e
00000190: 135d eabd 8970 5f3d f925 e03c b1be 02be
000001a0: 82da 45be 0807 cf3d 824e d5bc 9d13 a1bd
000001b0: 6d8a 4a3e f2a9 023d aca8 7fbe 28c2 ef3d
000001c0: e43e 36be 3c8f 993d feda 67be 0c44 71be
000001d0: 736b c5be 4739 333e e1b0 27be b949 c1be
000001e0: 83cd fbbe 036b 833e 42e0 3dbe 58d5 b23d
000001f0: d22d a2bd ea97 c03d 05d6 b4bc aece fe3d
00000200: 961f 4f3e 9ffb 6abe c5e5 cf3d 5c9f 393c
00000210: 5876 c3bd 286a 27bd 1d51 a2bd 3dd0 9abd
00000220: 6075 2c3d 7ea9 ce3b eeb1 84be 7171 fa3b
00000230: b7f9 35be 2b4a 24bc ded6 55be 9d35 6d3e
00000240: fe77 30be 6087 1fbf 237b b73b 952e 8bbd
00000250: 2c5a 59bc 199a efbc ede4 31be 1226 13bc
00000260: 6a6b 413e c57f 50be 8fb4 923e 52ca 3a3e
00000270: 2851 8d3d 2c14 b1be 0142 f73c cb85 f1bd
00000280: 66b4 89be 2c6a 06be cd0e 1fbe 92b0 47be
00000290: 3315 273c 0567 d3bc 88cf 0c3e 0080 cf3d
000002a0: 12f0 30bc 52bd c23d fc54 833e edf7 cbbe
000002b0: bf81 e9bc efdc 4fbe 480c 003e 943d 7fbb
000002c0: ed0f 66be 8bf9 5b3c b068 23bf d230 cbbd
000002d0: 395e c13c 52e1 04be afa9 123e 1a0b bc3d
000002e0: c26c 363e d93e 72bd c656 86bd 7b26 e3bd
000002f0: d101 40be 9de3 13be dae2 39be 1708 27be
00000300: fb09 9c3e 999d d7bd e704 98be 76b6 1abe
00000310: b42c 37bd e7af 7dbd 9f4e 0abd 06a0 d2be
00000320: 145c 63be 1c95 80be 4f68 b8bd 89ef 02be
00000330: 26d3 233d 3aaa e73d 3886 29be 67f0 59be
00000340: 0730 403e ebb1 09bd 80b5 133e 3946 8fbe
00000350: 1142 e1be e93e 613d 545f ebbd 10cf 02be
00000360: ef38 56be 39c4 2abe b141 273e 990a 8cbd
00000370: f958 adbe 1e6b 42be 2712 2dbd ae6d 9fbd
00000380: 4196 6a3d 98b0 81bd 3d44 243c d8eb 593d
00000390: 4b84 133d 994c e4bd 45bc 96be ae76 e8bb
000003a0: 3f06 83bc c939 adbb ee9f 54bd ff47 aa3c
000003b0: 1d38 bebd 71cc 17be c85f 2abd d402 9b3b
000003c0: 7c1c 83be 6c85 91bc 2653 fb3d 913c dfbe
000003d0: fb05 2f3e cd23 6c3e 28b3 283e 3866 85be
000003e0: 89b2 bcbc 3a0a 91be d64a b43c 95c0 e6bd
000003f0: 8884 cf3c c87c 89be d92f 18be 0602 713d
-0.25662348 -0.16814941 -0.113031164 -0.628658 -0.111462325 0.29298255 -0.2355255 -0.19738664
-0.062389486 0.118836224 0.055692375 0.05133144 -0.24288607 -0.39474842 -0.11722325 -0.4392264
-0.3986181 -0.06091547 0.009066817 -0.053235974 -0.12200955 0.066832624 -0.07372396 -0.25489265
-0.098012835 -0.3459125 -0.10750766 0.24600202 -0.034515243 0.07234201 -0.018433638 -0.028101154
-0.14163987 -0.2422812 -0.31004128 -0.15956067 -0.025839677 -0.06438393 -0.13225277 0.022630753
-0.14753224 -0.14726758 0.011811708 0.060301524 -0.03712718 -0.014290582 -0.11510602 0.07801091
-0.1152717 0.13125604 -0.5460769 0.2766665 -0.13019526 -0.10454075 0.25764838 -0.16882181
-0.12028957 0.03451253 0.0845175 0.04497586 -0.0072279624 -0.09188733 -0.01266281 -0.23989207
0.15146625 0.10087109 -0.0317254 -0.06198905 -0.3012126 -0.0046339463 -0.1354526 -0.0009189095
-0.124042355 -0.04798022 -0.3973631 -0.108772084 -0.044246763 -0.2392941 -0.007402257 0.06470392
-0.22309355 0.041078657 -0.22737832 -0.062198594 0.09798783 -0.23931475 0.24914958 -0.2619729
-0.106294 -0.012581742 -0.028582124 -0.045818325 -0.0751588 -0.031966105 -0.32175508 0.1237973
-0.03695274 0.03163893 -0.043083083 0.17374635 -0.11443534 0.05455068 0.027361857 -0.12768055
-0.19321635 0.10108763 -0.026038412 -0.07865069 0.19779368 0.031900354 -0.24966687 0.11706954
-0.17797428 0.07498023 -0.22642133 -0.23561114 -0.3855854 0.17502318 -0.16376068 -0.37751558
-0.4918023 0.2566758 -0.18542579 0.08732098 -0.07918896 0.09403975 -0.022074709 0.12441765
0.20226893 -0.22947548 0.10151247 0.011329498 -0.09544057 -0.040872723 -0.079256274 -0.075592496
0.042104125 0.006306826 -0.25917 0.007642918 -0.1777104 -0.010027449 -0.20882747 0.23164983
-0.17233273 -0.6231594 0.005599396 -0.06795994 -0.013266128 -0.029248284 -0.17372485 -0.008981245
0.18888631 -0.2036124 0.2865338 0.18241242 0.06900245 -0.34585702 0.03018284 -0.11793097
-0.26895446 -0.13126439 -0.1553299 -0.1950095 0.010197925 -0.02580596 0.13751042 0.10131836
-0.010799425 0.09508766 0.25650775 -0.3983759 -0.02850425 -0.20299123 0.12504685 -0.0038946616
-0.22467013 0.013426195 -0.63831615 -0.09921421 0.0236045 -0.12976578 0.14322542 0.09181805
0.17814925 -0.059141967 -0.065595195 -0.11091324 -0.18750693 -0.14442296 -0.18152943 -0.1631168
0.30476364 -0.10528106 -0.2969124 -0.15108666 -0.044720367 -0.06193533 -0.033766385 -0.41137713
-0.22203094 -0.2511376 -0.0900427 -0.12786688 0.03999629 0.11311765 -0.16555107 -0.21283112
0.18768321 -0.03361694 0.14424706 -0.27983263 -0.43995717 0.054991636 -0.11492792 -0.127743
-0.20920156 -0.16676416 0.16333653 -0.06837959 -0.33856943 -0.18986174 -0.04225364 -0.077845916
0.0572722 -0.06332511 0.010026035 0.053203434 0.036014836 -0.11147422 -0.29440513 -0.007094226
-0.01599419 -0.0052864295 -0.051910333 0.020786284 -0.092880465 -0.14824082 -0.04159525 0.0047305617
-0.2560767 -0.017763816 0.12271719 -0.43600896 0.17092125 0.23060532 0.16474593 -0.2605455
-0.023034351 -0.28328115 0.02200834 -0.11267201 0.02533175 -0.26853013 -0.14862002 0.05883982

fc2.bias f4 [300]
00000000: be5b 32bc b3cb 53bd 7c04 92be a1a4 673d
00000010: e3e3 293e 915e 6ebd fc10 cebe 5364 7dbd
00000020: 0291 08bd 2144 d43d a0f0 3dbd 3a48 c0be
00000030: 9f0b 8fbd b235 5d3e dd36 b33e 4861 453e
00000040: 4bf5 a43e 8d3d 95bd 7ba1 b23e baa3 62be
00000050: 6533 7bbd af37 353e 844b 873e 9744 49be
00000060: fafc 0c3e 38ac 8ebe e077 34be c31e 773c
00000070: 61d6 403b 089c a8bd 65a1 debc 17c0 263e
00000080: 2de2 79bd b71f 853d 46e9 163e e9c6 883c
00000090: 1b45 14be f081 4dbe 740a b53b ee4b 353e
000000a0: 4eaf c53e 1095 3c3e 604c 833d c34d 473e
000000b0: 1b6a 4ebd be1d 743e 1938 143c 3084 a13e
000000c0: 24b1 8b3e ddbc 173f 1400 013f 9a85 6fbe
000000d0: 4f86 b63e 1801 393e 7094 103e ea14 21bd
000000e0: 666b 82bd dacd edbd 4fb7 2f3e 0433 c93d
000000f0: f764 203f 2e83 d03e 64ba 2b3e ea5b 623e
00000100: c4ee 5d3e c90d 953c b319 a33e 65d5 183e
00000110: e104 143e 49e5 3d3e c692 1cbe 6839 953b
00000120: ea99 293e dad7 d4be 8ec0 643e 9c08 193e
00000130: e143 84be 6392 963d 86ae eb3c 5e06 d23d
00000140: a93d 843e cdd8 1b3e 10d3 463d 08ce 573c
00000150: d7bb 683e fde8 ebbd b459 283e 0b0b cbbd
00000160: 2e8d 703e c9fb 71bd 8d43 093e fb8f ccbc
00000170: b09e c43d acd7 593e 5488 693e e434 803e
00000180: d5db cabd d3ce 013e 9e7c fb3e e017 243e
00000190: 3946 0b3e 5e4a 3e3e c05c f0bd 57fd fabc
000001a0: 0e55 a23e de37 0abd b8ad d63a cfb4 41be
000001b0: 1a52 2fbe b37d ce3e aa85 b13e bf89 9e3e
000001c0: 534f 24bd c76a 85bd 656c 053c 7ae0 3b3c
000001d0: dd53 bebd b15f bdbd a2b6 da3d ef90 dfbe
000001e0: 7b97 ce3e 47bb 12be ffa3 6f3c f469 7abd
000001f0: 8b47 24bd fe53 cb3e cd21 603d 968c 813e
00000200: 1bec 24be 6639 58bc 7d78 983e f5b8 4a3e
00000210: 88b6 0c3e f2a4 19be b623 833e 73db 783e
00000220: a003 733c 0531 d73d 7bd8 073f 0d13 083e
00000230: b836 97bd f871 82bd 6a8b 2e3e aeb1 3c3e
00000240: 2000 583e 75a5 d43e 626e 9cbd ea19 423e
00000250: cf0c 353e d204 763d 61b1 aa3e e990 98bd
00000260: cb15 443c 95ce 56bd 6dec 43be 33b0 133f
00000270: 24dc 86bd 93d1 c5be 514f 09bc 4c0c febc
00000280: d359 223c f65b bdbd 68cb 6fbc 9718 47bd
00000290: 8b47 673e 3d2d b9be 3467 533e 0980 8ebe
000002a0: 047a ec3e b0a2 613e 1f40 4cbd a585 42be
000002b0: e18c f73d 78c3 423d 7d1a b9be 5ba6 163e
000002c0: c1b9 b03e bc79 4c3e 93a1 d3bc 70e1 8bbd
000002d0: 9110 d83e 8663 58bd 152f 983e 293e 2c3e
000002e0: d28b 843e 589a 78bd ee8e 493e 1a2b c83d
000002f0: caf1 ffbd b52c 483d 8ff9 babe 9a7e e63d
00000300: dc63 b13e 7ddc b1bd 515b 0cbe 0b55 b4be
00000310: 01a6 9cbd a579 c73d 2c1b 38be f815 9f3d
00000320: 9106 54bd 69ec 523e 2793 473d 07a9 0fbd
00000330: 6f7f 6dbd 8788 273e ca1f 8ebc f97e 2f3f
00000340: 1de9 f03e f484 3f3e 1736 893d 1233 5d3e
00000350: e4b5 4c3f 41ae 7c3e f5c2 27be f440 14be
00000360: 3a59 c7bd a4b2 a4bd 846b 0a3e 3c2e 523e
00000370: cfe0 a13d 5559 c9bc def7 e13d 2d6d 1d3f
00000380: 77e8 0dbe 9391 d13c 7779 6dbe 6f33 373e
00000390: ee8a 133f 4037 debc 3ba4 1cbe 1f94 613e
000003a0: b983 17bd 6f42 ea3c 93c6 e1bd 35d7 863c
000003b0: 0633 483e 3533 eb3c 34b6 f13d 5335 78be
000003c0: 491c 833d 86f2 93bd 389c a63e 4032 db3d
000003d0: b850 90be 120d 10be 8a04 303d bdaf a43e
000003e0: c3f1 733e 2333 47bd 2213 17be 76fa 37be
000003f0: 4d86 ca3e 378e b43d 8a06 89be 20a0 84bd
-0.010886131 -0.051707935 -0.28519046 0.056553487 0.16590838 -0.058195654 -0.40247333 -0.061863255
-0.033341415 0.10364557 -0.046372056 -0.37555104 -0.069846384 0.21602514 0.35002795 0.19275391
0.32218394 -0.072871305 0.34888825 -0.22132769 -0.06132831 0.17697023 0.264248 -0.19655071
0.13768378 -0.27865767 -0.17623854 0.015083018 0.0029424655 -0.082328856 -0.027176568 0.16284214
-0.061006714 0.0650019 0.14737424 0.01669641 -0.14479487 -0.20069098 0.0055249278 0.17704746
0.3861031 0.18416238 0.06411052 0.19463257 -0.05039416 0.2383947 0.009046578 0.31546164
0.27283585 0.5927256 0.50390744 -0.23390809 0.35649344 0.18066823 0.14119124 -0.039326586
-0.06368141 -0.11611529 0.1715977 0.098241836 0.6265406 0.40725082 0.16770321 0.22105375
0.21673113 0.01819505 0.31855544 0.14925154 0.14454986 0.18544497 -0.15290365 0.0045539625
0.1656262 -0.41570932 0.22339079 0.1494469 -0.25833037 0.0735214 0.028769743 0.10255121
0.25828293 0.15219422 0.04854113 0.01317168 0.22727905 -0.11519048 0.16440469 -0.09914216
0.23491356 -0.05907801 0.13404675 -0.024970999 0.0960058 0.21273679 0.22805911 0.25040352
-0.09905211 0.12676553 0.49118513 0.16024733 0.13601007 0.18583056 -0.11736441 -0.03063838
0.31705517 -0.033744685 0.0016378677 -0.18916629 -0.17121163 0.40330276 0.3467229 0.30964467
-0.040114712 -0.06514507 0.008143519 0.011467094 -0.092933394 -0.09246767 0.10679366 -0.43665263
0.40349945 -0.14329253 0.014626502 -0.0611362 -0.04010729 0.39712518 0.054719735 0.2530257
-0.16105692 -0.013197279 0.29779425 0.19797118 0.13741505 -0.15004328 0.25613183 0.24302463
0.014832407 0.105073966 0.530647 0.13288517 -0.07383484 -0.06369394 0.1704537 0.18427154
0.21093798 0.41532484 -0.07638241 0.18955198 0.17680667 0.06006319 0.33338454 -0.074495144
0.0119680865 -0.052443106 -0.19133158 0.57690734 -0.06584957 -0.38636455 -0.008380727 -0.031011723
0.009909111 -0.09246056 -0.014635898 -0.048607435 0.22585885 -0.36167327 0.20644838 -0.27832058
0.4618684 0.22034717 -0.04986584 -0.18996294 0.120874174 0.047549695 -0.3615302 0.14711897
0.3451672 0.19968313 -0.02583388 -0.06830108 0.4220014 -0.052829288 0.2972342 0.16820587
0.25887924 -0.06069407 0.1968343 0.09773846 -0.124972895 0.04887076 -0.36518523 0.11254616
0.346465 -0.08684633 -0.1370671 -0.35221133 -0.0764885 0.09739999 -0.17979115 0.07767862
-0.051764075 0.20597996 0.04872432 -0.035073306 -0.05798286 0.16360675 -0.017349143 0.6855312
0.4705285 0.18703061 0.0669977 0.21601513 0.79965043 0.24675848 -0.16382964 -0.14477903
-0.097338155 -0.080418855 0.13517576 0.2052545 0.07904207 -0.02457873 0.11033605 0.61494714
-0.1385821 0.02558211 -0.23190866 0.17890714 0.57633865 -0.027125955 -0.15297024 0.2202916
-0.036990855 0.028596131 -0.11024203 0.01646004 0.19550714 0.02871094 0.118023306 -0.24239092
0.06401879 -0.07223992 0.3254106 0.10702944 -0.28186584 -0.14067486 0.04297308 0.32165328
0.23822694 -0.048632752 -0.14753392 -0.17966637 0.39555588 0.08816188 -0.267628 -0.06475854
